zero/snapshots/Epoch199.pth (torch_old, 75818 bytes, 14 tensors)

e_conv1.weight f4 [16, 3, 3, 3]
0.016690088 0.09006065 0.0979151 -0.043462723 0.028505232 0.047318082 -0.020395752 0.045380857
0.038223494 0.11013349 -0.0134634385 -0.0038590978 0.056755695 0.0394743 0.10346553 0.020871231
-0.051536836 -0.05221542 0.0038378902 0.12145701 -0.024651906 -0.0137468735 -0.008484908 0.015056365
-0.11573346 -0.10689927 -0.1026509 -0.06904738 -0.09702307 0.090045825 0.12922467 -0.1266526
-0.03747516 0.03216851 -0.0060697175 0.09081041 -0.09700901 -0.025724346 0.036544 0.058585264
0.033778384 0.07492999 -0.01383302 0.0131220035 0.05841848 -0.080523476 -0.13619566 0.07464632
-0.11680693 0.09230007 -0.054206382 0.10622287 -0.0675205 0.060969774 0.04749313 -0.020967402
-0.04949538 0.20696416 -0.22631972 0.023171172 -0.04619018 0.026633795 -0.052564003 -0.008334169
0.03917175 0.021460118 0.13715535 -0.16833198 0.025570584 0.0439854 0.016822772 0.03987124
0.023397837 -0.023312975 0.03610373 0.15690099 -0.21543387 -0.031666465 -0.022885432 -0.019356081
0.030437192 0.07589019 0.091029786 -0.0022526241 0.1240392 0.06589818 -0.004514619 -0.008134188
-0.10378606 -0.073645845 0.067356035 0.018754654 -0.00087186083 0.023129668 0.084396236 -0.06640104
-0.06473913 -0.14421816 -0.060082193 0.061034024 0.04393825 -0.032882057 0.06742079 0.07542208
-0.03931336 -0.033357155 -0.10380757 -0.06494107 -0.06586205 -0.06708992 -0.049935773 -0.0740875
-0.08303045 -0.06369816 -0.07022106 -0.076217115 -0.061677992 -0.063199714 -0.06530415 -0.04958331
-0.07220111 -0.08146612 -0.0631654 -0.069323584 -0.07572246 -0.062082235 -0.056244336 -0.062035248
-0.046229742 -0.06482228 -0.07722854 -0.059313916 -0.060121473 -0.069323584 -0.05531514 0.028743014
0.06032277 0.04049915 0.046282656 0.016066521 0.021962786 0.05943931 0.011457905 0.013100694
0.054774888 0.021259649 0.04498802 0.042619552 0.010345108 0.018900352 0.03234893 0.0160697
0.062598534 -0.046062846 -0.08214599 -0.014097977 -0.091162995 -0.13438624 -0.074813604 -0.06647913
-0.1052526 -0.06174658 -0.02669415 0.10596087 0.01172317 -0.17280887 0.11127692 -0.0017780109
0.01687292 0.0044028754 -5.9845428e-05 -0.07250384 0.09190858 0.05046284 -0.17611036 0.09370974
0.01324377 0.03231387 -0.03447827 -0.03826075 -0.0071149296 0.08427141 0.014119964 -0.13662083
0.011250114 -0.011530746 0.031048926 -0.019397594 0.02213907 0.06093439 0.063998 0.09517144
-0.06314961 0.02349214 0.0043389522 0.049725 -0.003854485 0.03866409 0.12179752 0.11539222
0.038933817 0.026754756 0.009476429 -0.09795482 -0.08944492 -0.04678566 0.11764231 0.010161573
-0.05071632 -0.05592131 0.03464306 -0.09135855 -0.12213095 -0.048631243 0.09571489 -0.018492889
-0.06318436 0.004406803 0.01942653 -0.0057896376 -0.054322463 -0.025953507 -0.10652186 -0.09261636
-0.081269935 -0.0014875656 0.041738763 -0.006812809 0.031705685 0.08002573 0.06704199 0.010074626
-0.016813878 0.030138588 0.03937277 0.041856837 0.09593267 -0.026782127 0.06709553 0.07565487
0.053189166 -0.005195055 0.006508411 0.061844923 0.110983126 0.05617689 -0.096439704 -0.08382093
0.036498792 0.018542329 -0.0849659 0.015687224 0.049291477 -0.09366683 -0.11267236 -0.019412022
00000000: a7b9 883c b871 b83d b687 c83d f805 32bd
00000010: ce83 e93c 9bd0 413d fe14 a7bc 47e1 393d
00000020: 3d90 1c3d ab8d e13d c195 5cbc ebe8 7cbb
00000030: a978 683d ceaf 213d bce5 d33d 25fa aa3c
00000040: 4a18 53bd d6df 55bd 1d85 7b3b 74be f83d
00000050: cbf2 c9bc 913a 61bc 4904 0bbc f9ae 763c
00000060: aa05 edbd 01ee dabd a33a d2bd b668 8dbd
00000070: 08b4 c6bd f269 b83d 7953 043e 38b1 01be
00000080: 8e7f 19bd 21c3 033d 7be4 c6bb cffa b93d
00000090: a9ac c6bd ddbb d2bc 29af 153d 1af7 6f3d
000000a0: 345b 0a3d e574 993d e4a3 62bc acfd 563c
000000b0: 3748 6f3d 7ee9 a4bd e076 0bbe 2be0 983d
000000c0: 7938 efbd d207 bd3d 8307 5ebd 608b d93d
000000d0: 3048 8abd 71bb 793d 2888 423d d4c3 abbc
000000e0: abbb 4abd 6aee 533e 5bc0 67be 78d1 bd3c
000000f0: ea31 3dbd 1e2f da3c 5a4d 57bd 0a8c 08bc
00000100: 8f72 203d 21cd af3c 7472 0c3e 385f 2cbe
00000110: 6779 d13c 092a 343d e9cf 893c 0650 233d
00000120: d2ac bf3c dafa bebc 81e1 133d a7aa 203e
00000130: b29a 5cbe b2b4 01bd 3b7a bbbc a590 9ebc
00000140: 6b57 f93c 516c 9b3d d36d ba3d c3a0 13bb
00000150: 4408 fe3d a0f5 863d 5eef 93bb 4245 05bc
00000160: c98d d4bd a2d3 96bd f6f1 893d 5ca3 993c
00000170: 978d 64ba 6e7a bd3c efd7 ac3d 45fd 87bd
00000180: f395 84bd edad 13be bf18 76bd d0fe 793d
00000190: 98f8 333d 56af 06bd e913 8a3d e476 9a3d
000001a0: 0c07 21bd 83a1 08bd 1099 d4bd d3ff 84bd
000001b0: afe2 86bd 7166 89bd 7489 4cbd 30bb 97bd
000001c0: de0b aabd 2e74 82bd 0fd0 8fbd b817 9cbd
000001d0: 10a2 7cbd da6e 81bd 2fbe 85bd de17 4bbd
000001e0: 2dde 93bd b6d7 a6bd dc5c 81bd 86f9 8dbd
000001f0: 6114 9bbd f149 7ebd 7660 66bd ac18 7ebd
00000200: 665b 3dbd 8bc1 84bd ff29 9ebd 26f3 72bd
00000210: ef41 76bd 86f9 8dbd 2192 62bd 7876 eb3c
00000220: 0215 773d 70e2 253d e292 3d3d f09d 833c
00000230: 4deb b33c a276 733d f0b9 3b3c 4ba4 563c
00000240: a25b 603d b728 ae3c 5c45 383d d791 2e3d
00000250: 877e 293c e9d4 9a3c 5080 043d 9aa4 833c
00000260: a933 803d 65ac 3cbd 283c a8bd 34fb 66bc
00000270: aab3 babd 8c9c 09be e037 99bd 3626 88bd
00000280: ad8e d7bd fbe9 7cbd b1ad dabc 0302 d93d
00000290: 8a12 403c cff4 30be 27e5 e33d 250c e9ba
000002a0: 1439 8a3c ff45 903b 8a02 7bb8 e57c 94bd
000002b0: 913a bc3d 1fb2 4e3d 4656 34be e4ea bf3d
000002c0: 66fc 583c 8c5b 043d 1639 0dbd 4eb7 1cbd
000002d0: 5b24 e9bb 7d96 ac3d 6c57 673c 55e6 0bbe
000002e0: 6652 383c 74eb 3cbc 515a fe3c b4e7 9ebc
000002f0: ff5c b53c 5796 793d 6211 833d 3ee9 c23d
00000300: 9554 81bd 9772 c03c c52d 8e3b 71ac 4b3d
00000310: 879b 7cbb 3d5e 1e3d fa70 f93d c252 ec3d
00000320: 1179 1f3d ca2c db3c 0643 1b3c 899c c8bd
00000330: e62e b7bd 52a2 3fbd 74ee f03d ba7c 263c
00000340: eabb 4fbd be0d 65bd e2e5 0d3d 311a bbbd
00000350: cb1f fabd 8e31 47bd 2b06 c43d 667e 97bc
00000360: cd66 81bd f166 903b 6324 9f3c 00b7 bdbb
00000370: 3b81 5ebd 739c d4bc 2228 dabd a5ad bdbd
00000380: da70 a6bd 6bfa c2ba 44f6 2a3d fc3d dfbb
00000390: d2dd 013d 88e4 a33d 504d 893d 0b10 253c
000003a0: 42bd 89bc 33e5 f63c 5745 213d 1372 2b3d
000003b0: 5978 c43d 3166 dbbc 6269 893d f1f0 9a3d
000003c0: e2dc 593d 483b aabb 8244 d53b 1a51 7d3d
000003d0: 1f4b e33d bd19 663d 2e82 c5bd 4faa abbd
000003e0: c27f 153d 15e6 973c 9a02 aebd 7e82 803c
000003f0: dce5 493d 65d4 bfbd c4c0 e6bd f605 9fbc

e_conv1.bias f4 [16]
0.116492905 0.14469236 0.00037546724 0.00030755292 0.17749335 0.03124723 0.00016308179 -0.009067061
0.0040464434 -0.132613 0.13792615 0.1880447 -7.4911884e-05 -5.7945726e-05 0.055221032 0.041806705
00000000: d593 ee3d 3c2a 143e 5cda c439 0e3f a139
00000010: d1c0 353e 31fa ff3c ef00 2b39 038e 14bc
00000020: 0798 843b b4cb 07be 833c 0d3e ca8e 403e
00000030: 031a 9db8 c00a 73b8 732f 623d 823d 2b3d

e_conv2.weight f4 [16, 16, 3, 3]
-0.022838812 -0.019093277 -0.021549761 0.01848836 0.016824204 -0.01864729 0.004537185 0.044991035
0.042816356 0.008291016 0.025830671 0.036278024 0.013224474 -0.013250213 0.017349064 -0.005873624
-0.0151871145 0.0047876956 0.0023452966 0.030826116 0.026471797 0.0024251977 0.042741925 0.041389763
-0.005647953 0.032124806 0.033342786 -0.0033545033 0.008299354 -0.007859516 0.018605048 0.039652485
0.022081153 0.018488642 0.039703272 0.022860484 -0.020035332 -0.025060104 0.0031910276 -0.037587892
-0.04722352 -0.018899625 -0.015954692 -0.028681608 -0.005652805 -0.008267167 -0.008562818 -0.010303754
-0.0057442947 -0.004426917 -0.0074333227 -0.006831407 -0.0041840984 -0.007867795 0.0014183111 0.0038167334
-0.015837679 0.02152398 0.028900724 0.0057275603 0.023859913 0.03355823 0.013120941 -0.008250348
-0.011467546 -0.020171475 0.0039323065 0.008269398 -0.0020459653 -0.0036227498 0.005909493 0.0026074187
0.024152642 0.018667435 0.010102901 0.034956966 0.030601582 0.019159863 0.037663575 0.03592387
0.025783626 -0.010347096 -0.0089500295 -0.007063807 -0.015935682 -0.01247619 -0.009359879 -0.023848077
-0.021555295 -0.018762672 0.027365202 -0.0008138649 0.010701267 -0.0022749833 0.041414596 0.043382034
0.026460297 -0.0019870792 0.05856816 0.050419904 0.058329977 0.04400039 0.0221003 0.00896807
0.03756999 0.022849157 0.020876955 0.027232526 0.011277669 0.013490925 0.004577441 0.027242178
0.03282902 0.023363052 0.018465137 0.025784787 0.020738158 0.03337302 0.037311103 0.015650708
0.026309785 0.034875568 0.016877402 -0.0015601845 0.0037356457 -0.0052038636 0.063730225 0.016253995
0.04136025 0.034176182 0.06990153 0.06882266 -0.008935222 0.047104463 -0.020629568 0.038524017
0.0136253815 -0.029456854 0.019408774 0.04533758 -0.012631072 0.011517785 0.0030639137 0.04303139
-0.03359073 0.028837616 0.04063322 -0.011739816 -0.01649269 0.038038246 -0.009129167 -0.033440366
-0.0022795715 0.02320633 -0.035488393 0.027983751 0.007855506 0.030967018 0.031315573 -0.0011465849
0.018163398 0.040411863 -0.013295066 -0.046363823 -0.027463473 -0.014894995 -0.056081705 -0.036787935
-0.005775664 -0.03583021 -0.03287134 -0.0016543058 -0.012373431 0.014251332 -0.020607183 -0.0359453
-0.007999393 0.0018305765 -0.015958475 0.008151562 0.024109256 0.035097554 0.0089226775 0.0376367
0.053396024 0.02681965 0.016125292 0.032289594 0.012936842 0.0103760315 0.008929791 0.013436482
0.009560298 0.00838445 0.012205199 0.01873683 0.014736303 0.016669827 0.0013190265 -0.010920501
0.0010883277 -0.017185055 -0.030121198 -0.020918237 -0.012630256 -0.029781466 -0.018634241 -0.0019382593
-0.013187307 -0.006337855 -0.030437896 -0.025897318 -0.014293905 0.0026179405 -0.015134496 -0.015341262
-0.009131474 -0.00888007 -0.003908858 -0.013905323 -0.013388231 -0.007824105 -0.006810317 -0.012045111
-0.0068370006 -0.0073907473 0.00024763707 0.001611313 -0.009121411 -0.009160829 -0.006240626 -0.012933276
-0.009212783 -0.002036648 -0.029171027 0.0149930725 0.00047681524 -0.008592025 0.02894575 -0.017511984
0.05476832 0.017460268 0.0062849736 0.02502641 0.01425652 -0.018142255 -0.001424262 0.049369656
0.030103697 0.03658683 0.05299097 -0.002568748 -0.014483158 -0.014809995 -0.0033809114 -0.025758104
00000000: 7618 bbbc 8169 9cbc 2089 b0bc e774 973c
00000010: ead2 893c 34c2 98bc abac 943b 8548 383d
00000020: 3460 2f3d 0bd7 073c d89a d33c 4498 143d
00000030: 77ab 583c 6c17 59bc a01f 8e3c 8777 c0bb
00000040: 60d3 78bc 1ae2 9c3b 8cb3 193b 0d87 fc3c
00000050: 62db d83c 11f0 1e3b 2812 2f3d 5088 293d
00000060: 7712 b9bb 4d95 033d 7292 083d 3ad7 5bbb
00000070: 04fa 073c 33c5 00bc 9d69 983c a56a 223d
00000080: 89e3 b43c 7e75 973c e69f 223d e945 bb3c
00000090: 2321 a4bc d94a cdbc 8f20 513b c3f5 19bd
000000a0: 736d 41bd 63d3 9abc 6ab3 82bc b1f5 eabc
000000b0: 2a3b b9bb 0373 07bc 104b 0cbc 14d1 28bc
000000c0: a33a bcbb ac0f 91bb 3b93 f3bb ffd9 dfbb
000000d0: c31a 89bb ede7 00bc a0e6 b93a 2922 7a3b
000000e0: 05be 81bc 0f53 b03c 36c1 ec3c 42ae bb3b
000000f0: dd75 c33c 5b74 093d 37f9 563c 782c 07bc
00000100: 60e2 3bbc a63e a5bc 94da 803b 5e7c 073c
00000110: 9a15 06bb a86b 6dbb 6ca4 c13b 3ae1 2a3b
00000120: c3db c53c 73ec 983c a386 253c 092f 0f3d
00000130: 2bb0 fa3c 25f5 9c3c 1f45 1a3d e824 133d
00000140: 2f38 d33c de86 29bc 25a3 12bc 8277 e7bb
00000150: 8c8b 82bc ef68 4cbc 2e5a 19bc 0b5d c3bc
00000160: bb94 b0bc 2db4 99bc fd2c e03c 8d59 55ba
00000170: 5e54 2f3c e317 15bb 5aa2 293d 5cb1 313d
00000180: 44c3 d83c a839 02bb 2be5 6f3d 1a85 4e3d
00000190: 6aeb 6e3d c139 343d b00b b53c d0ee 123c
000001a0: fde2 193d 282e bb3c 2606 ab3c bf16 df3c
000001b0: f9c5 383c 0a09 5d3c 5cfe 953b fd2a df3c
000001c0: b977 063d df63 bf3c 3344 973c 9e3a d33c
000001d0: 12e3 a93c 26b2 083d 87d3 183d ea35 803c
000001e0: 9e87 d73c afd9 0e3d 7a42 8a3c 1b7f ccba
000001f0: bcd1 743b 2c85 aabb fe84 823d 1927 853c
00000200: 5e69 293d 53fc 0b3d 8928 8f3d e5f2 8c3d
00000210: 0a65 12bc 9cf0 403d 57ff a8bc 5ccb 1d3d
00000220: fe3c 5f3c 804f f1bc 26ff 9e3c e6b3 393d
00000230: 8ef2 4ebc 17b5 3c3c f1cb 483b af41 303d
00000240: 6f96 09bd dd3c ec3c 056f 263d 5b58 40bc
00000250: ae1b 87bc fecd 1b3d 8092 15bc c4f8 08bd
00000260: dd64 15bb 341b be3c 475c 11bd 2e3e e53c
00000270: 61b4 003c 8bae fd3c c244 003d 0149 96ba
00000280: 68cb 943c e986 253d 8cd3 59bc fee7 3dbd
00000290: 14fb e0bc 230a 74bc eeb5 65bd f2ae 16bd
000002a0: c841 bdbb b3c2 12bd 19a4 06bd 4bd5 d8ba
000002b0: eeb9 4abc 6b7e 693c 65d0 a8bc 613b 13bd
000002c0: e30f 03bc f4ef ef3a 59bb 82bc 218e 053c
000002d0: c680 c53c 74c2 0f3d 6c30 123c f128 1a3d
000002e0: cab5 5a3d e2b4 db3c 3019 843c 1842 043d
000002f0: 0cf5 533c 3b00 2a3c 424e 123c b124 5c3c
00000300: cca2 1c3c ef5e 093c 51f8 473c fb7d 993c
00000310: 8970 713c 298f 883c 2fe3 ac3a e7eb 32bc
00000320: 38a6 8e3a acc7 8cbc bbc0 f6bc b95c abbc
00000330: 22ef 4ebc 43f8 f3bc d6a6 98bc 310d feba
00000340: 930f 58bc c8ad cfbb e558 f9bc 9d26 d4bc
00000350: fc30 6abc c191 2b3b adf6 77bc eb59 7bbc
00000360: 2e9c 15bc b77d 11bc e115 80bb 27d3 63bc
00000370: 505a 5bbc ad30 00bc 1429 dfbb db58 45bc
00000380: eb08 e0bb 152e f2bb 49d5 8139 b132 d33a
00000390: f871 15bc 4d17 16bc 2a7e ccbb 17e6 53bc
000003a0: 36f1 16bc 4979 05bb 14f8 eebc 81a5 753c
000003b0: 0ffd f939 91c5 0cbc a31f ed3c 4b75 8fbc
000003c0: bf54 603d d608 8f3c 2ef2 cd3b 3004 cd3c
000003d0: 2e94 693c 119f 94bc 4dae baba d637 4a3d
000003e0: 079c f63c 12dc 153d 0f0d 593d 7158 28bb
000003f0: c44a 6dbc 9fa5 72bc 4892 5dbb a902 d3bc

e_conv2.bias f4 [16]
0.008954493 0.06452011 -0.0068992097 -0.040862434 -0.019561265 -0.009517652 -0.013936724 -0.00082901114
-0.038264487 0.1137036 -0.00081410276 -0.0251351 -0.0014288404 -0.017187692 -0.007836367 0.054834936
00000000: deb5 123c 1f23 843d c412 e2bb 5e5f 27bd
00000010: f23e a0bc edef 1bbc db56 64bc ff51 59ba
00000020: 39bb 1cbd 6fdd e83d 8369 55ba 20e8 cdbc
00000030: ee47 bbba 34cd 8cbc 1b64 00bc 999a 603d

e_conv3.weight f4 [16, 16, 3, 3]
-0.03857354 -0.039156243 -0.025727069 0.04005915 -0.046984512 0.005606422 0.030991439 -0.018705243
-0.020024257 0.0073081413 0.021794375 0.01326449 0.012525221 0.039754245 0.030931333 0.0009822606
0.027334739 0.028055817 0.04653644 -0.047594387 -0.001178324 -0.03506923 -0.012956728 -0.0103036985
-0.046583366 -0.011540285 -0.0337375 -0.016447144 -0.015698124 0.0057044025 0.02061917 -0.010607138
-0.008003751 -0.0005296755 0.00066957134 0.027724497 0.005467829 0.022611788 -0.026792105 0.0006827551
0.009937774 -0.04326986 -0.05186188 -0.03428506 -0.059406985 0.0072782906 -0.025395803 -0.0076543726
-0.01596434 -0.0005813473 -0.005398348 0.028778614 -0.016674351 -0.026517566 -0.030258356 -0.019277547
0.021288376 0.033146054 0.02727306 -0.041754067 0.030813701 0.0024862594 -0.024692805 -5.7770085e-05
-5.9382044e-05 -5.814152e-05 -6.0302875e-05 -6.2087645e-05 -6.0790775e-05 -6.0682105e-05 -6.2564395e-05 -6.122824e-05
0.0012993886 -0.0010497433 -0.00827993 0.002438458 -0.0032836804 -0.005263986 0.01241726 -0.012088446
-0.009616113 0.0073860274 0.032116458 0.0037536197 0.012773086 0.028768983 0.028523717 -0.001452146
0.030369144 0.010897163 0.036981948 0.013913566 0.0067479215 0.021216264 -0.00095788407 -0.0026169147
0.024357928 -0.0023514777 -0.009639165 0.0380995 -0.023779662 0.057342354 0.030752817 -0.035097267
-0.0033436667 0.012117604 0.0074280533 -0.021291073 -0.0010467324 -0.007643601 -0.015875911 -0.008303807
-0.0060491706 -0.011304435 -0.011026048 -0.0077203466 -0.013139746 0.017238535 -0.004137681 -0.0013628496
0.0066574924 -0.018824836 -0.014706747 0.006995149 -0.014770096 -0.010189993 0.0103310915 -0.022621067
0.053806722 0.04808275 0.011241231 0.01145902 0.04799171 -0.048749655 0.028338341 0.012750825
0.0030016897 0.0017267813 0.008184131 0.0049692704 0.003246353 -0.0074899243 -0.0018232267 0.00540574
-0.05286719 0.07550327 0.05657413 0.062225066 0.008618223 0.059621148 -0.03180214 0.05599494
0.038304444 -0.002431865 -0.020743687 0.014502766 -0.017599316 -0.046287864 -0.029627342 0.02420585
-0.015379063 -0.021026045 -0.013606938 0.0074699107 0.069766276 -0.04430451 0.0682558 0.007603773
0.017353304 0.04287095 0.04742062 0.022122433 0.05976411 0.017892167 0.012986917 0.037694342
-0.023739882 0.0088214055 0.019399006 -0.0031142342 0.017261546 0.06837033 -0.0048538754 0.056916606
-0.03504283 0.04120473 -0.04110361 0.02112829 0.062928714 0.022148825 0.0063982033 -0.04029332
0.0025860413 0.06109694 0.009261735 0.059548587 0.028506968 -0.021945553 0.046727005 0.048318073
0.021096619 -0.016889868 0.024635898 0.02363036 -0.024700714 0.0053162123 0.0070913024 0.000475255
0.00047913316 0.00047220947 0.00048590355 0.0004900161 0.00048295737 0.00048786352 0.00049216073 0.00048502392
0.0029563892 0.03319429 -0.012678683 0.028810438 0.042763326 -0.0027588995 -0.008062401 0.003665742
0.010463573 0.01219515 -0.0049456377 0.039603572 0.034815237 -0.035889223 0.02796808 -0.014177349
-0.013889489 0.020299137 0.0021567172 0.018673237 0.0026947358 0.0058677783 0.025820594 -0.0016690273
0.0048545273 0.015187114 0.010402112 0.011189749 -0.044233687 0.022398137 0.055784333 0.08486866
-0.0042350627 -0.008953746 0.02321651 0.04192824 0.021297328 0.028341796 0.028087609 0.015740223
00000000: 4aff 1dbd 4c62 20bd 93c1 d2bc 1015 243d
00000010: d572 40bd 14b6 b73b c2e1 fd3c bd3b 99bc
00000020: e909 a4bc 2279 ef3b 1e8a b23c 4e53 593c
00000030: 9636 4d3c 59d5 223d b563 fd3c 32bf 803a
00000040: 1aed df3c 50d5 e53c fe9c 3e3d 55f2 42bd
00000050: fe71 9aba c1a4 0fbd 7548 54bc d8d0 28bc
00000060: 33ce 3ebd 7713 3dbc 5530 0abd 29bc 86bc
00000070: 5a99 80bc ffeb ba3b 89e9 a83c 90c9 2dbc
00000080: 2a22 03bc ecd9 0aba 2c86 2f3a 7c1e e33c
00000090: 792b b33b 5b3c b93c 1e7b dbbc ebfa 323a
000000a0: 0cd2 223c bd3b 31bd 1f6d 54bd 7e6e 0cbd
000000b0: bd54 73bd ba7e ee3b dc0a d0bc 88d1 fabb
000000c0: a6c7 82bc 8f65 18ba a0e4 b0bb 21c1 eb3c
000000d0: a698 88bc 5e3b d9bc 5fe0 f7bc f2eb 9dbc
000000e0: f664 ae3c 28c4 073d c16b df3c 5006 2bbd
000000f0: 046d fc3c 83f0 223b 9148 cabc 284e 72b8
00000100: fc10 79b8 fbdc 73b8 b8ed 7cb8 0d35 82b8
00000110: 99f9 7eb8 ea84 7eb8 0135 83b8 a967 80b8
00000120: 3f50 aa3a 8a97 89ba 8ba8 07bc 89ce 1f3b
00000130: 0433 57bb 847d acbb c371 4b3c 9e0e 46bc
00000140: e78c 1dbc 7d06 f23b 8c8c 033d 4aff 753b
00000150: 3546 513c eeac eb3c 92aa e93c ef55 beba
00000160: b6c8 f83c 048a 323c 627a 173d baf5 633c
00000170: ab1d dd3b bbcd ad3c 831a 7bba 8b80 2bbb
00000180: 478a c73c 401b 1abb 97ed 1dbc 390e 1c3d
00000190: 91cd c2bc d1df 6a3d 55ed fb3c 27c2 0fbd
000001a0: 6b21 5bbb ea88 463c 0767 f33b 9e6a aebc
000001b0: 8332 89ba 2c77 fabb 330e 82bc b10c 08bc
000001c0: 1f38 c6bb 3d36 39bc 99a6 34bc f6fa fcbb
000001d0: 1748 57bc d437 8d3c 6295 87bb a5a1 b2ba
000001e0: 1827 da3b 8b36 9abc 91f4 70bc 9037 e53b
000001f0: 46fe 71bc eef3 26bc bd43 293c d14f b9bc
00000200: 7064 5c3d 6bf2 443d 242d 383c 9dbe 3b3c
00000210: f592 443d b8ad 47bd cf25 e83c d6e8 503c
00000220: ffb7 443b 2a55 e23a bc16 063c 43d5 a23b
00000230: c4c0 543b 0a6e f5bb 56f9 eeba a222 b13b
00000240: 448b 58bd 75a1 9a3d 46ba 673d b6df 7e3d
00000250: 7233 0d3c 4e35 743d f642 02bd f35a 653d
00000260: 1fe5 1c3d ed5f 1fbb aaee a9bc 029d 6d3c
00000270: 712c 90bc 5898 3dbd 0ab5 f2bc 594b c63c
00000280: 77f8 7bbc d03e acbc a2ef 5ebc 27c6 f43b
00000290: 9fe1 8e3d a578 35bd b2c9 8b3d 1229 f93b
000002a0: 8428 8e3c 7399 2f3d 203c 423d 1b3a b53c
000002b0: 36cb 743d 9892 923c 14c7 543c 6265 1a3d
000002c0: 247a c2bc a887 103c aaea 9e3c 2e18 4cbb
000002d0: 1668 8d3c be05 8c3d 420d 9fbb 6321 693d
000002e0: 1289 0fbd 4ac6 283d 425c 28bd 3c15 ad3c
000002f0: c5e0 803d 7471 b53c 05a8 d13b 9c0a 25bd
00000300: 937a 293b c940 7a3d 88be 173c 38e9 733d
00000310: 7287 e93c 29c7 b3bc d164 3f3d 2ce9 453d
00000320: d1d2 ac3c 9f5c 8abc 39d1 c93c 7594 c13c
00000330: 2759 cabc 9f33 ae3b 285e e83b a52b f939
00000340: 2a34 fb39 e292 f739 dfc0 fe39 6c74 003a
00000350: 7135 fd39 efc7 ff39 5904 013a cf4a fe39
00000360: fbbf 413b bcf6 073d 40ba 4fbc de03 ec3c
00000370: 9928 2f3d a7ce 34bb 2918 04bc f23c 703b
00000380: 686f 2b3c 2bce 473c 040f a2bb 5b37 223d
00000390: 6c9a 0e3d 9400 13bd 511d e53c 1d48 68bc
000003a0: bd90 63bc 604a a63c b657 0d3b 9ef8 983c
000003b0: 2a9a 303b 7e46 c03b b685 d33c 43c3 daba
000003c0: ba12 9f3b 5fd3 783c 9f6d 2a3c 3655 373c
000003d0: 622e 35bd 4c7c b73c 1d7e 643d 9fcf ad3d
000003e0: 48c6 8abb bcb2 12bc 8d30 be3c f2bc 2b3d
000003f0: bc77 ae3c 0e2d e83c fc17 e63c a4f1 803c

e_conv3.bias f4 [16]
0.12333434 -0.07869895 -4.5738357e-25 0.015162655 0.07448196 -0.00074698473 -0.037101123 0.088353805
0.08800092 0.11875755 -7.131659e-08 0.06391007 0.04829749 0.10274594 0.03143087 0.064498216
00000000: b796 fc3d ea2c a1bd a98d 0d97 c96c 783c
00000010: ff89 983d 4cd1 43ba 59f7 17bd d7f2 b43d
00000020: d439 b43d 2937 f33d b626 99b3 48e3 823d
00000030: 97d3 453d 776c d23d a8bd 003d a417 843d

e_conv4.weight f4 [16, 16, 3, 3]
0.0037379456 -0.0012606345 0.0024714884 0.004296243 -0.0014161309 0.0014092638 0.010497012 0.006872255
0.007883822 -0.010393824 0.0010132699 0.010395764 -0.010348434 0.025281962 0.0002704263 -0.023535395
-0.011088983 0.007571146 1.04493e-40 8.6115e-41 -2.4841e-41 1.07641e-40 5.6856e-41 -8.7051e-41
-1.0253e-40 1.39187e-40 -1.328e-41 0.025668388 0.035119306 0.040617805 -0.0023363738 0.03561267
0.03924407 0.010189256 0.012810196 -0.0026411621 -0.0035662572 -0.0116962865 -0.015549822 -0.0035137367
-0.01203432 -0.016146483 -0.00023281615 -0.0071829353 -0.010867358 9.937127e-19 6.055937e-19 2.4670902e-19
1.5813464e-18 9.09834e-19 3.505419e-19 1.5585525e-18 8.73242e-19 3.237616e-19 0.0074178735 0.034225162
0.017459728 -0.0023671607 0.015100634 0.043309804 -0.0012221002 -0.00039505967 -0.0018049523 0.00877648
0.005530343 0.00575094 0.0017023135 0.012406037 0.010985036 0.010444567 0.0065586297 0.013306509
0.0041257874 0.0024713827 0.0018171116 0.0038042723 0.00089226116 -0.0012895329 0.0070356173 0.005239148
0.0027363712 0.008103525 0.007811012 0.008567218 0.0048983917 0.002912958 0.001245351 0.0049199606
0.003335044 0.002607324 -4.2173e-41 7.6703e-41 -7.237e-41 7.7052e-41 -5.9108e-41 6.8902e-41
-2.2976e-41 -8.055e-41 1.11e-42 0.0063442 0.0054115313 0.0008129837 0.005778503 0.0036035785
-0.0024422368 0.0050266865 0.0036789584 -0.0012161576 0.0010018751 0.00041859108 0.003725789 -0.0016057496
-0.004786171 -0.002360571 -0.00045200298 -0.0045850626 -0.003419068 -0.0005685039 -0.014942181 -0.021036044
-0.00052275317 -0.015216378 -0.021659628 0.0059244623 -0.0050957217 -0.010446609 -0.0057553914 -0.009800656
-0.0036403069 -0.0046512596 -0.0072455937 -9.206652e-05 -0.0007806726 -0.002181401 0.0041009244 0.0042744745
0.0048708804 0.0032973064 0.0035460906 0.002776477 0.0010267784 0.004013684 0.0027335463 0.0008507091
-2.3447742e-19 -3.8934045e-19 -2.9296478e-19 -6.7758526e-19 -1.1400866e-18 -9.142026e-19 -9.321827e-19 -1.6136667e-18
-1.3679639e-18 -2.614505e-06 -2.765725e-06 -2.6893765e-06 -2.8420532e-06 -2.9992525e-06 -2.9120424e-06 -2.7856076e-06
-2.9340601e-06 -2.8406557e-06 -1.4716e-40 -1.48725e-40 -1.72304e-40 -1.62698e-40 -1.50195e-40 -1.71865e-40
-1.72405e-40 -5.8542e-41 -1.61795e-40 -6.580063e-06 -6.932832e-06 -6.7754127e-06 -7.0218175e-06 -7.3863234e-06
-7.2122853e-06 -6.8185477e-06 -7.164031e-06 -6.9812995e-06 8.085346e-39 8.588806e-39 4.403956e-39 -4.858334e-39
-6.714732e-39 -7.625324e-39 8.476236e-39 7.356946e-39 1.1922e-39 1.3886e-40 1.36408e-40 1.37641e-40
1.5611e-40 1.55595e-40 1.34839e-40 -4.9617e-41 1.49193e-40 1.46856e-40 -8.419616e-06 -8.864225e-06
-8.695218e-06 -9.09344e-06 -9.555544e-06 -9.364722e-06 -9.020037e-06 -9.463266e-06 -9.2548335e-06 -3.6933038e-13
-4.1224576e-13 -3.1140298e-13 -5.952667e-13 -6.6620066e-13 -5.117135e-13 -6.679743e-13 -7.482917e-13 -5.790083e-13
2.9425151e-34 3.0749077e-34 3.7312826e-34 -5.7937688e-34 -5.960122e-34 4.704427e-34 -1.2844955e-34 -1.5304677e-34
4.820951e-34 -2.0580103e-18 -1.825114e-18 -6.857899e-19 -2.6871177e-18 -2.406193e-18 -9.233838e-19 -1.4430053e-18
-1.2906122e-18 -4.8370524e-19 -1.37117e-40 1.08068e-40 -1.46745e-40 1.15216e-40 -1.43365e-40 1.47952e-40
1.06558e-40 1.47183e-40 -1.38768e-40 -9.797438e-35 -5.235834e-35 2.166535e-35 -9.649672e-35 -4.7778895e-35
2.0648251e-35 -1.0371054e-36 2.426518e-35 -5.103928e-36 3.230715e-38 -1.2231693e-38 3.9307394e-38 -2.1008009e-38
00000000: 52f8 743b e03b a5ba b2f8 213b 80c7 8c3b
00000010: 789d b9ba 0cb7 b83a a9fb 2b3c a730 e13b
00000020: 252b 013c dc4a 2abc b2cf 843a ff52 2a3c
00000030: 7a8c 29bc 1e1c cf3c 01c8 8d39 4dcd c0bc
00000040: 91ae 35bc 6017 f83b 4923 0100 0ef0 0000
00000050: 3f45 0080 0f2c 0100 7e9e 0000 aaf2 0080
00000060: d01d 0180 ff83 0100 0525 0080 8346 d23c
00000070: 43d9 0f3d db5e 263d d91d 19bb 97de 113d
00000080: 64be 203d d6f0 263c dbe1 513c 5917 2dbb
00000090: deb7 69bb c8a1 3fbc aec4 7ebc b846 66bb
000000a0: 992b 45bc a145 84bc 1c20 74b9 d45e ebbb
000000b0: 010d 32bc 68a5 9221 5ebd 3221 9da1 9120
000000c0: 945d e921 8f44 8621 65ec ce20 7300 e621
000000d0: 26de 8021 781d bf20 a211 f33b af2f 0c3d
000000e0: b407 8f3c 5e22 1bbb a668 773c 9f65 313d
000000f0: e12e a0ba 0320 cfb9 2694 ecba 3acb 0f3c
00000100: e137 b53b 6272 bc3b 2a20 df3a b142 4b3c
00000110: 95fa 333c b01f 2b3c c6e9 d63b 8b03 5a3c
00000120: 9d31 873b ecf6 213b 262c ee3a 1951 793b
00000130: a2e6 693a 8b05 a9ba 098b e63b 29ad ab3b
00000140: b154 333b a6c4 043c 85f3 ff3b 845d 0c3c
00000150: b082 a03b 53e7 3e3b 0c3b a33a 9f37 a13b
00000160: c190 5a3b a3df 2a3b 9075 0080 d1d5 0000
00000170: bdc9 0080 cad6 0000 c5a4 0080 12c0 0000
00000180: 0c40 0080 8ae0 0080 1803 0000 02e3 cf3b
00000190: 3753 b13b 6a1e 553a 9959 bd3b 042a 6c3b
000001a0: ef0d 20bb e7b6 a43b ae1a 713b 7a67 9fba
000001b0: 5a51 833a 5876 db39 5e2c 743b 0478 d2ba
000001c0: 50d5 9cbb cfb3 1abb d0fa ecb9 4b3e 96bb
000001d0: 7112 60bb a707 15ba 0dd0 74bc c853 acbc
000001e0: 5f09 09ba 1d4e 79bc 886f b1bc fe21 c23b
000001f0: 03fa a6bb 4128 2bbc b997 bcbb ee92 20bc
00000200: 3792 6ebb 9869 98bb 726c edbb d613 c1b8
00000210: 0da6 4cba d6f5 0ebb 0c61 863b e410 8c3b
00000220: e89b 9f3b 9f17 583b 8765 683b 8ef5 353b
00000230: f794 863a 3985 833b 4c25 333b 1f02 5f3a
00000240: 3a69 8aa0 77d3 e5a0 96ef aca0 e5fc 47a1
00000250: 413f a8a1 99e9 86a1 de90 89a1 9b22 eea1
00000260: 37e0 c9a1 db74 2fb6 cb9a 39b6 237b 34b6
00000270: 1aba 3eb6 c446 49b6 826c 43b6 60f0 3ab6
00000280: c5e6 44b6 18a2 3eb6 399a 0180 969e 0180
00000290: 50e0 0180 89c5 0180 afa2 0180 17df 0180
000002a0: 98e0 0180 31a3 0080 05c3 0180 50ca dcb6
000002b0: 93a0 e8b6 5a58 e3b6 f49c ebb6 09d8 f7b6
000002c0: 0f01 f2b6 e1ca e4b6 8f62 f0b6 e840 eab6
000002d0: a80a 5800 1986 5d00 70f4 2f00 0fe7 3480
000002e0: f11d 4980 4d08 5380 4c4c 5c00 2c1c 5000
000002f0: 5efb 0c00 1683 0100 407c 0100 b07f 0100
00000300: 2cb3 0100 bcb1 0100 e077 0100 508a 0080
00000310: e49f 0100 6099 0100 fa41 0db7 8eb7 14b7
00000320: ade1 11b7 0790 18b7 c050 20b7 2d1d 1db7
00000330: c454 17b7 6bc4 1eb7 3545 1bb7 1eea cfaa
00000340: e012 e8aa e64d afaa 7c8d 27ab d184 3bab
00000350: d808 10ab 9f04 3cab 19a0 52ab f2f9 22ab
00000360: 4d90 c307 d85c cc07 7cfc f707 ef87 4088
00000370: 1c0f 4688 d754 1c08 1ebd 2a87 1e6f 4b87
00000380: 1e34 2008 b7da 17a2 6eab 06a2 d268 4aa1
00000390: 3846 46a2 b38b 31a2 7444 88a1 33f3 d4a1
000003a0: f375 bea1 bcc3 0ea1 3a7e 0180 402d 0100
000003b0: 1199 0180 2d41 0100 a58f 0180 6e9c 0100
000003c0: 0a29 0100 499a 0100 d482 0180 f43a 0287
000003d0: 3d31 8b86 b162 e605 2244 0087 4309 7e86
000003e0: e391 db05 5074 b083 0d04 0106 db18 d984
000003f0: 98e5 2f01 fc30 8580 8302 5601 c8c1 e480

e_conv4.bias f4 [16]
0.013794032 -0.00028785205 0.060326215 -3.4987123e-21 -5.062518e-06 -1.2124985e-07 0.047238715 0.12488197
-0.07621527 -0.06801571 0.022677854 0.10076402 -0.011248434 0.09177729 0.08477152 0.079999715
00000000: 5d00 623c d9ea 96b9 9f18 773d 782d 849d
00000010: b3de a9b6 e830 02b4 627d 413d 1ec2 ff3d
00000020: c016 9cbd d24b 8bbd e8c6 b93c 5e5d ce3d
00000030: 5a4b 38bc bbf5 bb3d b19c ad3d e4d6 a33d

e_conv5.weight f4 [16, 32, 3, 3]
2.7658748e-38 1.4129252e-37 1.3317437e-37 1.9286015e-37 1.6621746e-37 1.9022313e-37 1.0732014e-37 2.573742e-37
2.5050674e-37 -3.4854135e-13 -4.284207e-13 -4.749425e-13 -3.5750683e-13 -4.3324383e-13 -4.7093487e-13 -3.1675392e-13
-3.7914263e-13 -4.0857487e-13 7.3392e-41 1.3649e-40 1.84233e-40 7.0358e-41 1.05062e-40 1.77801e-40
7.1028e-41 5.8647e-41 1.879e-40 -1.1191141e-11 -1.3843428e-11 -1.5243924e-11 -1.1553552e-11 -1.4112136e-11
-1.5324894e-11 -1.0212665e-11 -1.2375339e-11 -1.336887e-11 1.5148e-41 7.6742e-41 2.1583e-41 -2.5623e-41
4.4715e-41 -1.976e-42 2.631e-41 2.0711e-41 6.9294e-41 1.70178e-40 -1.94036e-40 1.68903e-40
1.51358e-40 -1.47719e-40 1.58347e-40 1.60751e-40 -1.90958e-40 -2.01721e-40 -2.3506197e-11 -2.8018357e-11
-3.092215e-11 -2.4443059e-11 -2.8785103e-11 -3.1249506e-11 -2.19974e-11 -2.5650058e-11 -2.7623447e-11 6.9879495e-32
1.3962308e-31 1.4052083e-31 1.361847e-31 -2.8074943e-31 -3.439598e-31 1.0892356e-31 7.8214273e-32 7.731352e-32
-6.813e-42 3.4796e-41 6.742e-41 -2.9542e-41 -6.8134e-41 -4.6784e-41 6.0923e-41 -4.1726e-41
-2.6137e-41 -1.729634e-39 -1.767504e-39 -2.45396e-39 -2.612336e-39 1.5214862e-38 1.0246272e-38 -2.323937e-39
1.267921e-39 -8.904e-42 -1.79254e-40 -5.321e-41 1.77416e-40 -1.84945e-40 -1.58813e-40 1.93989e-40
-1.90303e-40 -1.51106e-40 1.9242e-40 -4.0953e-41 1.101e-41 -6.0043e-41 -7.0644e-41 1.8644e-41
1.3025e-41 -2.2551e-41 -1.7722e-41 -1.5191e-41 4.328e-41 -6.6403e-41 -6.9374e-41 -7.1818e-41
3.5841e-41 -6.3468e-41 -6.7262e-41 2.8183e-41 -2.447e-41 -6.9808e-41 -1.7966e-41 -7.67e-42
7.0705e-41 -3.7168e-41 -3.1819e-41 -6.6472e-41 3.6004e-41 4.553e-41 -7.9264e-41 8.5458e-41
-5.8835e-41 4.3806e-41 -8.0315e-41 3.754e-41 3.6975e-41 7.8089e-41 -5.6741e-41 4.1229e-41
2.9203e-41 1.7921e-41 2.7173e-41 -6.8739e-41 -6.81e-41 5.266e-41 -1.6908e-41 -1.4547e-41
-2.2644976e-27 -6.390257e-27 -9.0769394e-27 -4.1941358e-27 -1.0891135e-26 -1.471654e-26 -2.6960048e-27 -6.836748e-27
-9.080544e-27 8.724e-42 1.58372e-40 8.252e-42 1.1712e-41 1.18846e-40 1.11752e-40 1.05172e-40
1.05752e-40 1.09654e-40 6.712e-41 -7.2975e-41 7.4099e-41 -6.023e-42 2.5023e-41 -4.911e-41
-7.8682e-41 -6.4108e-41 -5.4016e-41 -1.50729e-40 -5.0504e-41 -1.35444e-40 -1.91678e-40 -1.69592e-40
-1.1544e-40 1.17224e-40 1.52966e-40 -7.962e-41 9.2169e-41 1.01182e-40 -1.89192e-40 -2.676e-41
-1.74268e-40 1.8962e-41 6.1416e-41 1.66229e-40 5.685e-41 1.9512e-40 -1.77106e-40 -6.1022e-41
1.57132e-40 -1.01981e-40 -1.28704e-40 -1.3015e-40 -1.58052e-40 7.8216e-41 -1.5022e-41 6.8714e-41
7.4158e-41 -2.8664e-41 -3.0173e-41 -7.4796e-41 -5.3284e-41 -5.2651e-41 1.2764e-41 -2.1756602e-24
-6.962891e-24 -5.946902e-24 -7.520294e-24 -2.2774858e-23 -1.9946432e-23 -5.3798862e-24 -1.702616e-23 -1.4845744e-23
-7.676067e-21 -1.3029912e-20 -1.670775e-20 -6.918761e-21 -1.1292041e-20 -1.4179955e-20 -4.8624593e-21 -7.8268775e-21
-9.971395e-21 -2.8961283e-15 -3.9575137e-15 -4.58876e-15 -3.043121e-15 -4.069784e-15 -4.6336946e-15 -2.55143e-15
-3.3705889e-15 -3.824832e-15 1.0167e-40 9.202e-41 7.1507e-41 9.0964e-41 -8.038e-42 5.5494e-41
7.3743e-41 5.3821e-41 -1.05288e-40 -6.6001e-41 3.3735e-41 5.7599e-41 -3.2523e-41 4.766e-42
9.466e-42 -6.7739e-41 3.9189e-41 4.7686e-41 -3.8918e-41 -3.343e-41 8.806e-42 5.9323e-41
00000000: ab96 1601 4251 4002 7f44 3502 fa40 8302
00000010: 553e 6202 8b75 8102 9c13 1202 e928 af02
00000020: 6e7c aa02 1a36 c4aa ee2d f1aa 37af 05ab
00000030: 2a42 c9aa 04e5 f3aa 6f8e 04ab 0d51 b2aa
00000040: 3670 d5aa d801 e6aa 96cc 0000 7b7c 0100
00000050: 9101 0200 21c4 0000 df24 0100 a3ef 0100
00000060: ffc5 0000 7ca3 0000 ca0b 0200 6be0 44ad
00000070: 4289 73ad 4416 86ad 9340 4bad 6943 78ad
00000080: 98cc 86ad c1a9 33ad 92b5 59ad 0a30 6bad
00000090: 3a2a 0000 edd5 0000 2a3c 0000 6d47 0080
000000a0: a67c 0000 8205 0080 5749 0000 bc39 0000
000000b0: 2ac1 0000 63da 0100 e51c 0280 d5d6 0100
000000c0: eda5 0100 c89b 0180 68b9 0100 1cc0 0100
000000d0: 5014 0280 5132 0280 40c3 cead bb73 f6ad
000000e0: 3fff 07ae e000 d7ad 4a32 fdad d16f 09ae
000000f0: be7d c1ad cc9e e1ad 79fa f2ad e46a b50b
00000100: ba3d 350c 0e68 360c 21c7 300c 8037 b68c
00000110: 203e df8c 1064 0d0c 4d0e cb0b a6b7 c80b
00000120: fe12 0080 ff60 0000 f1bb 0000 5a52 0080
00000130: eebd 0080 6a82 0080 d4a9 0000 5174 0080
00000140: dc48 0080 84d5 1280 153f 1380 a4b8 1a80
00000150: 2172 1c80 d8ac a500 7092 6f00 314e 1980
00000160: 73ce 0d00 d218 0080 b0f3 0180 5494 0080
00000170: 90ee 0100 8d03 0280 b5ba 0180 c31c 0200
00000180: 7d12 0280 39a5 0180 6418 0200 2972 0080
00000190: b11e 0000 60a7 0080 edc4 0080 f933 0000
000001a0: 4f24 0000 dd3e 0080 6731 0080 592a 0080
000001b0: a678 0000 1bb9 0080 63c1 0080 33c8 0080
000001c0: e963 0000 ecb0 0080 80bb 0080 904e 0000
000001d0: 3644 0080 99c2 0080 1532 0080 6115 0080
000001e0: 19c5 0000 9c67 0080 b358 0080 4cb9 0080
000001f0: 5d64 0000 eb7e 0000 f5dc 0080 39ee 0000
00000200: 02a4 0080 1d7a 0000 e3df 0080 a568 0000
00000210: 1267 0000 aed9 0000 2c9e 0080 ee72 0000
00000220: 6851 0000 f531 0000 bf4b 0000 9ebf 0080
00000230: d6bd 0080 cb92 0000 222f 0080 8d28 0080
00000240: 7869 3393 e824 fd93 8dc9 3394 9725 a693
00000250: 9eb8 5794 ddbe 9194 7999 5593 6e6a 0794
00000260: d4db 3394 5218 0000 7ab9 0100 0117 0000
00000270: a620 0000 4b4b 0100 8537 0100 2d25 0100
00000280: cb26 0100 ac31 0100 1abb 0000 6dcb 0080
00000290: 8fce 0000 ca10 0080 c145 0000 e688 0080
000002a0: 55db 0080 b5b2 0080 9396 0080 2ca4 0180
000002b0: c98c 0080 9079 0180 5216 0280 c1d8 0180
000002c0: cd41 0180 c646 0100 68aa 0100 f3dd 0080
000002d0: ee00 0100 0e1a 0100 640f 0280 994a 0080
000002e0: cae5 0180 dc34 0000 34ab 0000 61cf 0100
000002f0: 7a9e 0000 ea1f 0200 b3ed 0180 1baa 0080
00000300: 05b6 0100 481c 0180 c666 0180 ce6a 0180
00000310: 96b8 0180 09da 0000 e029 0080 8cbf 0000
00000320: b9ce 0000 e74f 0080 1c54 0080 80d0 0080
00000330: 8994 0080 c592 0080 9523 0000 6455 2898
00000340: 91ae 0699 440f e698 b176 1199 d143 dc99
00000350: f9e8 c099 d01f d098 bbaa a499 4894 8f99
00000360: 2fff 109e ca20 769e dccc 9d9e 13b1 029e
00000370: f64c 559e 07ed 859e d2b2 b79d 75d8 139e
00000380: b55a 3c9e 23b0 50a7 9f95 8ea7 d753 a5a7
00000390: ad47 5ba7 22a1 92a7 4af2 a6a7 94d9 37a7
000003a0: 64e0 72a7 d9cd 89a7 6a1b 0100 8400 0100
000003b0: 55c7 0000 92fd 0000 6816 0080 b29a 0000
000003c0: 91cd 0000 0896 0000 8025 0180 fcb7 0080
000003d0: 0a5e 0000 90a0 0000 a95a 0080 490d 0000
000003e0: 631a 0000 d4bc 0080 3e6d 0000 ee84 0000
000003f0: 7d6c 0080 305d 0080 8c18 0000 5ea5 0000

e_conv5.bias f4 [16]
-4.636033e-06 0.091307424 0.06303998 0.08949257 0.017105835 0.056463692 0.052181777 -1.915929e-07
-0.00082171627 0.031668726 -2.4720514e-12 0.06139698 0.007910299 0.10538657 0.082318105 0.09853253
00000000: 388f 9bb6 63ff ba3d 1b1b 813d e147 b73d
00000010: 8921 8c3c 7946 673d 8fbc 553d a8b8 4db4
00000020: 7268 57ba 11b7 013d 85f4 2dac 667b 7b3d
00000030: 339a 013c ead4 d73d 6596 a83d 6ccb c93d

e_conv6.weight f4 [16, 32, 3, 3]
-0.00015875032 -0.00016087413 -0.00015565373 -0.00016201647 -0.0001646211 -0.00015950872 -0.000160577 -0.00016326852
-0.00015860745 1.5734002e-29 9.944729e-30 1.0788644e-29 1.508965e-29 1.3194417e-29 1.2932135e-29 -6.0180684e-30
1.1733058e-29 1.5347345e-29 -7.7222765e-05 -7.790453e-05 -7.409612e-05 -7.98049e-05 -8.065564e-05 -7.676002e-05
-7.917165e-05 -8.0025406e-05 -7.633721e-05 -6.653315e-07 -6.764853e-07 -6.129995e-07 -6.097383e-07 -6.1793486e-07
-5.606668e-07 -5.248731e-07 -5.3136563e-07 -4.846076e-07 -1.9264657e-05 -1.8551451e-05 -1.6688333e-05 -2.0896947e-05
-2.0195854e-05 -1.8196519e-05 -2.1279959e-05 -2.0660094e-05 -1.8679995e-05 -1.287226e-14 -6.8181184e-15 -1.7310855e-15
-6.8214024e-15 -3.448664e-15 -7.4906686e-16 -2.5836673e-15 -1.262124e-15 -2.4182264e-16 -8.7664676e-09 -7.809774e-09
-5.4745515e-09 -8.816126e-09 -7.927229e-09 -5.5213105e-09 -7.471209e-09 -6.756451e-09 -4.72872e-09 1.92e-41
3.8914e-41 1.4237e-41 4.3104e-41 4.284e-41 4.6187e-41 3.6546e-41 6.36e-41 -1.13839e-40
-1.6430067e-09 -1.8363981e-09 -1.5949776e-09 -1.3501519e-09 -1.5320101e-09 -1.3316236e-09 -1.0066786e-09 -1.1504279e-09
-1.008893e-09 -7.663474e-12 -8.090509e-12 -7.712947e-12 -8.878358e-12 -9.190895e-12 -9.016294e-12 -9.236769e-12
-9.604502e-12 -9.326487e-12 -1.0876294e-16 -1.8893348e-16 -2.7531678e-16 -1.8564246e-16 -3.251799e-16 -4.6571523e-16
-3.45121e-16 -5.791788e-16 -7.6382594e-16 -0.00021078615 -0.00021289941 -0.0002060051 -0.00021573174 -0.00021842193
-0.00021156552 -0.00021530053 -0.00021812215 -0.0002117506 -1.5204514e-29 -1.8559262e-29 2.8224951e-30 -1.7205366e-29
-1.6224321e-29 6.3794744e-30 1.4417092e-29 1.7091623e-29 2.5401228e-29 -8.159195e-30 -5.5093697e-30 7.115539e-30
8.163827e-31 6.8090034e-30 4.8410803e-30 -1.4243475e-30 -8.3139086e-30 -3.9871565e-30 -4.5713616e-05 -4.6267658e-05
-4.4337205e-05 -4.994523e-05 -5.0745173e-05 -4.8596045e-05 -5.194592e-05 -5.2922634e-05 -5.069116e-05 -2.7982607e-29
1.9315165e-29 2.4521685e-29 6.2268862e-30 3.4866022e-29 -1.3944168e-29 3.4297505e-29 -6.9856834e-30 -3.0939448e-29
-1.85626e-40 -1.66181e-40 -1.1582e-40 -1.81978e-40 -7.1602e-41 -1.53121e-40 1.05578e-40 -1.55163e-40
1.7676e-41 1.58192e-29 1.8396764e-29 9.048324e-30 8.638329e-30 2.0640217e-29 1.5123928e-29 -2.6460117e-29
1.5210444e-29 2.2475891e-29 -1.6270991e-06 -1.6743749e-06 -1.5667873e-06 -1.5772976e-06 -1.6260544e-06 -1.5290523e-06
-1.4257463e-06 -1.4738121e-06 -1.3937632e-06 -7.73917e-12 -1.0728957e-11 -1.2358654e-11 -1.0901091e-11 -1.508526e-11
-1.752792e-11 -1.6347219e-11 -2.2494657e-11 -2.5146434e-11 -4.073753e-08 -3.761565e-08 -3.1410288e-08 -4.270158e-08
-3.9331955e-08 -3.286252e-08 -4.094958e-08 -3.7815514e-08 -3.1661052e-08 -4.362901e-17 -8.304343e-17 -1.0689346e-16
-6.235858e-17 -1.204888e-16 -1.6741045e-16 -9.99144e-17 -1.9755586e-16 -2.6433932e-16 -2.4003763e-11 -1.4333194e-11
-8.304001e-12 -2.54035e-11 -1.4754286e-11 -8.586619e-12 -2.5741274e-11 -1.5181979e-11 -8.8732355e-12 8.0477e-41
8.303e-42 1.67644e-40 -1.50211e-40 -1.18526e-40 9.5447e-41 1.17856e-40 -1.48484e-40 -5.0817e-41
-0.0002241966 -0.00022208356 -0.0002129701 -0.00023122973 -0.00022907954 -0.00021972258 -0.00023207559 -0.00023000396
-0.00022095931 -2.4985595e-22 -3.6728095e-23 9.9648146e-23 -2.2733654e-22 2.8404534e-23 2.7141864e-22 -2.103393e-22
1.0208583e-22 3.5590988e-22 7.534038e-31 7.312981e-31 6.1341395e-31 -3.4426125e-31 -5.323371e-31 9.7994364e-32
-7.2410208e-31 -6.0420814e-31 -7.733431e-31 -5.8904157e-19 -3.3290706e-19 -1.1934175e-19 -1.0784357e-18 -6.2648214e-19
-2.8546037e-19 -1.9291556e-18 -1.2550173e-18 -6.024529e-19 5.1245136e-30 2.9136614e-30 5.666852e-31 4.9920033e-30
00000000: 3776 26b9 52b0 28b9 fb36 23b9 f7e2 29b9
00000010: 249e 2cb9 cc41 27b9 8f60 28b9 0f33 2bb9
00000020: dd4f 26b9 ce8f 9f0f fcb3 490f d8d1 5a0f
00000030: f906 990f aace 850f be25 830f 321f f48e
00000040: 85f9 6d0f fca3 9b0f a8f2 a1b8 ad60 a3b8
00000050: 0d64 9bb8 ee5c a7b8 ab25 a9b8 39fa a0b8
00000060: f508 a6b8 50d3 a7b8 3a17 a0b8 3c99 32b5
00000070: b797 35b5 018d 24b5 e6ac 23b5 29e0 25b5
00000080: bb80 16b5 01e5 0cb5 2ba3 0eb5 fb15 02b5
00000090: 899a a1b7 f09e 9bb7 ecfd 8bb7 da4b afb7
000000a0: 446a a9b7 baa4 98b7 5d82 b2b7 374f adb7
000000b0: fcb2 9cb7 d2e2 67a8 0ba6 f5a7 c879 f9a6
000000c0: 55c4 f5a7 9f80 78a7 61e7 57a6 402c 3aa7
000000d0: 28e4 b5a6 b966 8ba5 559b 16b2 c02b 06b2
000000e0: aa1a bcb1 bb75 17b2 5230 08b2 f6b5 bdb1
000000f0: ba5a 00b2 5f26 e8b1 437a a2b1 8635 0000
00000100: 7a6c 0000 b027 0000 2878 0000 6c77 0000
00000110: c080 0000 e065 0000 4ab1 0000 563d 0180
00000120: 29d0 e1b0 8464 fcb0 4936 dbb0 3f90 b9b0
00000130: d08e d2b0 5704 b7b0 5b5b 8ab0 151d 9eb0
00000140: 44a9 8ab0 38d1 06ad 6a54 0ead 06b0 07ad
00000150: 9230 1cad 1cb0 21ad c79d 1ead b67e 22ad
00000160: d5f6 28ad c312 24ad 4fca faa4 52d3 59a5
00000170: 96b5 9ea5 fc07 56a5 1574 bba5 b83b 06a6
00000180: dff2 c6a5 daef 26a6 6828 5ca6 7a06 5db9
00000190: c03d 5fb9 1303 58b9 0c36 62b9 3108 65b9
000001a0: b0d7 5db9 4cc2 61b9 b8b7 64b9 5e09 5eb9
000001b0: 2d31 9a8f 9936 bc8f eefc 640e af7b ae8f
000001c0: bf88 a48f 2064 010f e934 920f 6454 ad0f
000001d0: aecc 0010 f67c 258f 917c df8e fe51 100f
000001e0: 3677 840d 5e1a 0a0f a760 c40e 151d e78d
000001f0: 48a0 288f 00bd a18e 9fbc 3fb8 850f 42b8
00000200: b6f6 39b8 487c 51b8 37d7 54b8 9bd3 4bb8
00000210: 82e0 59b8 3ff9 5db8 389d 54b8 80e3 0d90
00000220: 09e1 c30f efad f80f af97 fc0e afca 3010
00000230: 2169 8d8f b5e8 2d10 beaf 0d8f b3e1 1c90
00000240: 7305 0280 3fcf 0180 dc42 0180 48fb 0180
00000250: 99c7 0080 d7aa 0180 4f26 0100 88b0 0180
00000260: 4631 0000 fe6c a00f bb90 ba0f 9685 370f
00000270: c534 2f0f 1151 d10f f65f 990f 322b 0690
00000280: 9240 9a0f c0ee e30f b362 dab5 15bb e0b5
00000290: 674a d2b5 88b3 d3b5 ce3e dab5 d639 cdb5
000002a0: 455c bfb5 cccf c5b5 5711 bbb5 2026 08ad
000002b0: edbe 3cad 6e6a 59ad 26c6 3fad fcb0 84ad
000002c0: 5e2d 9aad aaca 8fad 77dd c5ad bc30 ddad
000002d0: 63f7 2eb3 d88e 21b3 fae7 06b3 e266 37b3
000002e0: f1ed 28b3 b924 0db3 8ae0 2fb3 996a 22b3
000002f0: b2fb 07b3 0b34 49a4 307c bfa4 c37a f6a4
00000300: 02ca 8fa4 04ea 0aa5 d802 41a5 0d63 e6a4
00000310: 33c4 63a5 9961 98a5 ab23 d3ad f826 7cad
00000320: e515 12ad 9973 dfad b3c7 81ad b20e 17ad
00000330: 326c e2ad c78a 85ad 8019 1cad 56e0 0000
00000340: 2517 0000 53d3 0100 baa2 0180 674a 0180
00000350: 110a 0100 8948 0100 ea9d 0180 a88d 0080
00000360: 5116 6bb9 1adf 68b9 ba50 5fb9 4276 72b9
00000370: 1235 70b9 5565 66b9 5159 73b9 382d 71b9
00000380: 50b1 67b9 5607 979b 2e9b 319a 37ef f01a
00000390: a06a 899b 1c5b 091a 0010 a41b dc48 7e9b
000003a0: 11d4 f61a 6322 d71b 577e 740d df51 6d0d
000003b0: 7010 470d 3670 df8c d6c0 2c8d 6d68 fe0b
000003c0: 0cfc 6a8d a613 448d d5f6 7a8d b9da 2da1
000003d0: 7e83 c4a0 d5e4 0ca0 2626 9fa1 a7e7 38a1
000003e0: 8d81 a8a0 b858 0ea2 3735 b9a1 0ed0 31a1
000003f0: fedf cf0e 6162 6c0e 5de6 370d ed7f ca0e

e_conv6.bias f4 [16]
-0.0011584269 0.0718018 0.08763373 0.056776326 0.06312394 0.051506467 0.13856898 0.094319835
0.042747077 0.04236941 -2.1970431e-10 0.05483293 -0.0005286768 0.003079539 -0.010970626 0.05105371
00000000: 5bd6 97ba d20c 933d 5079 b33d 4b8e 683d
00000010: 2047 813d 72f8 523d 07e5 0d3e c22a c13d
00000020: 8f17 2f3d 8c8b 2d3d 4491 71af 7f98 603d
00000030: e696 0aba 17d2 493b 24be 33bc b21d 513d

e_conv7.weight f4 [6, 32, 3, 3]
0.010429685 0.05431102 0.028905818 0.004858496 0.014817362 0.005163485 0.02867166 -0.006106507
-0.030531863 -0.017292906 0.02929678 -0.019270713 -0.021357886 0.054154657 0.019052092 -0.021614704
0.052606966 0.043174814 -0.00430576 0.028435767 -0.020821124 0.0148925 0.0488916 -0.0367133
-0.0006277556 0.022721674 -0.022420906 0.013471161 0.024532719 -0.018900568 0.012491618 -0.0088768555
-0.03442402 -0.013517343 -0.017965024 -0.043904603 0.016236506 0.02247945 0.016795738 0.021659248
0.028342493 0.022450956 0.016161108 0.02257197 0.016315553 -0.016445288 0.0029767253 -0.024774635
-0.01840878 -0.0025682028 -0.022213755 -0.030662108 -0.022830322 -0.023656571 -0.017470783 -0.0032848658
0.010265103 -0.020348469 -0.007512386 0.045952126 -0.029911814 -0.021587307 0.01085399 -0.0019131193
0.00084760616 0.010525077 0.012450732 0.027847748 0.0064057237 -0.015126231 -0.0045392555 -0.013284322
0.01018418 0.021521298 0.016418474 0.0105427485 0.023646398 0.028025012 -0.0042647365 0.015862798
0.015868008 0.0033815869 0.014544213 -0.03017015 0.026101809 0.008090492 0.020028077 0.0024606797
-0.0007806355 -0.02373657 0.048505522 0.038085032 0.016808402 0.03246664 0.055928852 0.041601367
-0.004606346 0.0063241394 -0.0036921627 0.015257798 -0.0052756565 -0.021125894 0.0349529 0.014420683
0.0017507852 0.044011038 0.033337772 0.030042903 -0.005961801 -0.0035892166 0.002136313 0.0036953732
-0.0025351464 0.0056622094 0.006249991 0.011031287 0.009810057 0.0012264714 -0.032938737 -0.013899668
0.013362675 0.020335862 -0.00070632127 0.011267027 0.010376104 -0.015381657 -0.015725696 -0.0067186444
-0.008529041 -0.0055520176 0.011550137 0.049649958 0.008942905 -0.010159778 0.03541283 0.021295028
-0.0043593934 0.012407175 0.032434165 -0.008985075 -0.01930006 0.013574236 0.04147133 0.026694795
-6.104675e-05 -5.8525067e-05 -5.527723e-05 -6.188303e-05 -5.957399e-05 -5.632819e-05 -6.1378196e-05 -5.9134316e-05
-5.629467e-05 -0.010158589 0.048137896 0.038591713 0.01649335 0.06636853 0.059736602 -0.026490444
0.013803363 0.010174462 -0.00041721438 0.03522014 0.012690585 0.014061 0.052846566 0.027959943
-0.02345494 0.009745101 -0.012120392 0.053221513 0.024272824 0.0318399 0.0028602683 0.07496897
0.05185483 0.05196778 0.061265342 0.035801582 0.025042593 0.045888375 -0.012294679 0.058508124
0.032368418 0.016828 0.047775865 0.02255956 0.026505861 0.030603211 0.08747981 0.022865279
0.08326506 0.14986336 0.07800806 0.04063004 0.101351224 0.0403018 -0.018887399 0.05427669
0.019530743 0.055136938 0.13326228 0.08595071 0.008632426 0.08312747 0.0374819 0.03414263
0.09515215 0.0083895065 0.06035587 0.08596107 0.03976544 0.053561237 0.074867696 0.043050952
0.021401599 0.05258715 0.022934169 0.07814412 0.11725798 0.0805216 0.040230546 0.07439198
0.03845476 0.02640876 0.03885085 0.043020293 0.056683246 0.06576789 0.06302327 0.028194526
0.02757509 0.03865685 -1.9892684e-06 -2.0372747e-06 -1.9454142e-06 -2.1548733e-06 -2.208319e-06 -2.1107835e-06
-2.0688226e-06 -2.1234612e-06 -2.0305342e-06 0.035431877 0.06395636 0.049040627 0.04987895 0.08179525
0.06443994 0.02694649 0.0539908 0.037251398 0.020402929 0.05819179 0.004895474 0.10771023
00000000: 45e1 2a3c 3b75 5e3d e5cb ec3c 0534 9f3b
00000010: 85c4 723c 7432 a93b d4e0 ea3c 1819 c8bb
00000020: f51d fabc daa9 8dbc cdff ef3c 9ddd 9dbc
00000030: bcf6 aebc 46d1 5d3d 2213 9c3c 5211 b1bc
00000040: 677a 573d 13d8 303d 5517 8dbb 20f2 e83c
00000050: 1091 aabc acff 733c 8f42 483d af60 16bd
00000060: f78f 24ba ce22 ba3c 0cac b7bc 25b6 5c3c
00000070: d7f8 c83c 5dd5 9abc a5a9 4c3c 3b70 11bc
00000080: 3400 0dbd d977 5dbc 632b 93bc 50d5 33bd
00000090: 6c02 853c d326 b83c 3797 893c bc6e b13c
000000a0: 842e e83c 11eb b73c 4d64 843c dae8 b83c
000000b0: 32a8 853c 45b8 86bc 2a15 433b 2df4 cabc
000000c0: 03ce 96bc 4b4f 28bb 9ff9 b5bc 1a2f fbbc
000000d0: a806 bbbc 6dcb c1bc e31e 8fbc e746 57bb
000000e0: f62e 283c d5b1 a6bc 762a f6bb 4c38 3c3d
000000f0: 9f09 f5bc ddd7 b0bc efd4 313c a2c1 faba
00000100: e331 5e3a 5f71 2c3c 28fe 4b3c f620 e43c
00000110: 1be7 d13b 03d4 77bc 09be 94bb 7ca6 59bc
00000120: 8cdb 263c 6f4d b03c 0980 863c 7ebb 2c3c
00000130: 17b6 c13c b694 e53c 34bf 8bbb b3f2 813c
00000140: a0fd 813c 9d9d 5d3b da4a 6e3c 6427 f7bc
00000150: 76d3 d53c fc8d 043c ec11 a43c 5b43 213b
00000160: 90a3 4cba 3273 c2bc baad 463d 0dff 1b3d
00000170: c6b1 893c bdfb 043d a715 653d 3266 2a3d
00000180: d5f0 96bb ba3a cf3b 36f8 71bb d8fb 793c
00000190: 6adf acbb 3610 adbc c62a 0f3d ba44 6c3c
000001a0: 9a7a e53a eb44 343d 308d 083d 891c f63c
000001b0: 365b c3bb 1039 6bbb 6201 0c3b 132e 723b
000001c0: b324 26bb 0e8a b93b b9cc cc3b 92bc 343c
000001d0: 5cba 203c 8dc1 a03a c5ea 06bd 6fbb 63bc
000001e0: 1fef 5a3c 6597 a63c 6b28 39ba 5699 383c
000001f0: 8900 2a3c 5803 7cbc 2dd3 80bc 1328 dcbb
00000200: 64bd 0bbc b3ed b5bb c93c 3d3c c15d 4b3d
00000210: 4385 123c 3375 26bc 0b0d 113d e972 ae3c
00000220: 3ed9 8ebb 7747 4b3c b0d9 043d 2336 13bc
00000230: 291b 9ebc 7966 5e3c d7dd 293d 0baf da3c
00000240: 3906 80b8 d078 75b8 79d9 67b8 33c7 81b8
00000250: 16df 79b8 ef41 6cb8 2bb8 80b8 fd06 78b8
00000260: f11d 6cb8 3670 26bc 3e2c 453d 5812 1e3d
00000270: 101d 873c 39ec 873d 5eae 743d 7d02 d9bc
00000280: 8027 623c c9b2 263c 91bd dab9 fe42 103d
00000290: 2cec 4f3c 1c60 663c a475 583d 400c e53c
000002a0: 9324 c0bc eba9 1f3c 9c94 46bc cdfe 593d
000002b0: cdd7 c63c 8e6a 023d 5773 3b3b 5589 993d
000002c0: bb65 543d 2bdc 543d 5ef1 7a3d aea4 123d
000002d0: 2026 cd3c 73f5 3b3d 9f6f 49bc 37a6 6f3d
000002e0: bf94 043d e0da 893c a0b0 433d d4ce b83c
000002f0: d222 d93c 96b3 fa3c 9d28 b33d f74f bb3c
00000300: df86 aa3d c875 193e b1c2 9f3d af6b 263d
00000310: 3b91 cf3d 8013 253d bfb9 9abc 3c51 5e3d
00000320: f0fe 9f3c 45d7 613d e875 083e ed06 b03d
00000330: 056f 0d3c bc3e aa3d 9f86 193d 24d9 0b3d
00000340: 21df c23d 2474 093c b737 773d 5c0c b03d
00000350: 16e1 223d 0763 5b3d 3c54 993d 3256 303d
00000360: 6852 af3c a065 573d 70e0 bb3c 060a a03d
00000370: f424 f03d 82e8 a43d c9c8 243d d35a 983d
00000380: bd82 1d3d 2f57 d83c 1222 1f3d 0c36 303d
00000390: b12c 683d 51b1 863d 5812 813d 35f8 e63c
000003a0: 28e5 e13c a556 1e3d 5f7f 05b6 1db8 08b6
000003b0: f68d 02b6 719c 10b6 a232 14b6 fca6 0db6
000003c0: 1ad6 0ab6 c980 0eb6 5044 08b6 0421 113d
000003d0: 8dfb 823d d3de 483d df4d 4c3d 4584 a73d
000003e0: 16f9 833d e3be dc3c 7525 5d3d ec94 183d
000003f0: 0b24 a73c 845a 6e3d 366a a03b 2e97 dc3d

e_conv7.bias f4 [6]
0.06120252 0.10841532 0.088076405 0.084994316 0.057743277 0.09349762
00000000: 7eaf 7a3d da08 de3d 6761 b43d 8011 ae3d
00000010: 3784 6c3d ae7b bf3d
