zero/snapshots/Epoch198.pth (torch_old, 75818 bytes, 14 tensors)

e_conv1.weight f4 [16, 3, 3, 3]
0	0x3c88d943	0.016705161
1	0x3db89310	0.09012425
2	0x3dc8dd8d	0.098078825
3	0xbd324093	-0.043518614
4	0x3ce9996c	0.02851554
5	0x3d420174	0.047364667
6	0xbca63f14	-0.02029375
7	0x3d3aa3d5	0.0455664
8	0x3d1d2feb	0.038375776
9	0x3de2132e	0.110388145
10	0xbc5db288	-0.013531335
11	0xbb7c2546	-0.0038474365
12	0x3d6934a7	0.05693498
13	0x3d220a56	0.03956064
14	0x3dd449f1	0.10365666
15	0x3cac99a7	0.02106936
16	0xbd52f49d	-0.051502813
17	0xbd55ddf9	-0.052213643
18	0x3b7fd175	0.0039034758
19	0x3df92e89	0.12167079
20	0xbcca21c0	-0.024674296
21	0xbc605905	-0.013693099
22	0xbc0ad3e9	-0.008473375
23	0x3c77321b	0.01508763
24	0xbded37b7	-0.115828924
25	0xbddb260a	-0.10700615
26	0xbdd27d79	-0.10277838
27	0xbd8d6404	-0.06903842
28	0xbdc6e4f3	-0.09711637
29	0x3db8dd2f	0.090265624
30	0x3e04b86a	0.12960973
31	0xbe01f1e7	-0.12689935
32	0xbd1a2ec5	-0.03764226
33	0x3d042cac	0.032269165
34	0xbbc8cb33	-0.006127739
35	0x3dba2f45	0.09091047
36	0xbdc6e1d3	-0.09711041
37	0xbcd283de	-0.025697645
38	0x3d15e74e	0.036597542
39	0x3d70c111	0.058777872
40	0x3d0abe78	0.03387305
41	0x3d9998f5	0.07499877
42	0xbc630cbf	-0.013858019
43	0x3c56a9d7	0.013102016
44	0x3d6f610e	0.058442168
45	0xbda4ecb7	-0.08052962
46	0xbe0b9af8	-0.13633335
47	0x3d995987	0.07487779
48	0xbdef8850	-0.116959214
49	0x3dbdb524	0.092630655
50	0xbd5e90f1	-0.054337446
51	0x3dda2fc1	0.106536396
52	0xbd8a90ed	-0.06765924
53	0x3d7a2b73	0.061076593
54	0x3d43d67d	0.047811974
55	0xbcac1707	-0.021007074
56	0xbd4adbdd	-0.049526084
57	0x3e53c300	0.20679855
58	0xbe67a7a1	-0.22622539
59	0x3cbdd475	0.023172596
60	0xbd3d9b50	-0.046290696
61	0x3cda6c14	0.026662864
62	0xbd57c4c8	-0.0526779
63	0xbc075865	-0.008260821
64	0x3d2099a0	0.03920901
65	0x3cb0d586	0.02158619
66	0x3e0c10fb	0.13678353
67	0xbe2c232e	-0.16810295
68	0x3cd1a9f0	0.025593728
69	0x3d34d605	0.044149417
70	0x3c8a2411	0.0168629
71	0x3d242a6f	0.04007953
72	0x3cc110d9	0.023567604
73	0xbcbfef5d	-0.023429567
74	0x3d152b32	0.036418147
75	0x3e206275	0.15662558
76	0xbe5c8048	-0.2153331
77	0xbd01dc09	-0.031703983
78	0xbcbbef0a	-0.022941131
79	0xbc9f2c4b	-0.0194303
80	0x3cfbb2a1	0.030724825
81	0x3d9b2769	0.07575876
82	0x3dba1fc9	0.09088094
83	0xbb288564	-0.0025714273
84	0x3dfdfcb7	0.12401717
85	0x3d861902	0.065477386
86	0xbb9da18c	-0.0048105177
87	0xbc09af2d	-0.008403582
88	0xbdd5ae2f	-0.104336135
89	0xbd97dc53	-0.074150704
90	0x3d8a2777	0.067458086
91	0x3c97046c	0.018434726
92	0xba64481a	-0.0008708254
93	0x3cbac73c	0.02280008
94	0x3dad0910	0.08448994
95	0xbd88bbdb	-0.066764556
96	0xbd852d1e	-0.06502746
97	0xbe142627	-0.14467679
98	0xbd761055	-0.06007417
99	0x3d79b3d8	0.060962528
100	0x3d32e9e5	0.04368009
101	0xbd083e79	-0.033262704
102	0x3d89e163	0.06732442
103	0x3d9a8342	0.07544567
104	0xbd220d88	-0.039563686
105	0xbd0953b9	-0.03352711
106	0xbdd5281d	-0.104080416
107	0xbd85390a	-0.0650502
108	0xbd88c65e	-0.066784605
109	0xbd8b4066	-0.067993924
110	0xbd4fb8e7	-0.050713446
111	0xbd99ae9d	-0.07504008
112	0xbdac05d0	-0.08399546
113	0xbd84305a	-0.06454535
114	0xbd919de7	-0.071101956
115	0xbd9dfcf2	-0.07714261
116	0xbd800cce	-0.06252442
117	0xbd839a82	-0.064259544
118	0xbd87e28e	-0.06635009
119	0xbd4f01fc	-0.050539
120	0xbd962862	-0.07331921
121	0xbda9227d	-0.08258531
122	0xbd837b41	-0.06419993
123	0xbd902486	-0.07038216
124	0xbd9d5010	-0.07681286
125	0xbd813ade	-0.06310056
126	0xbd6a5169	-0.057206545
127	0xbd811f33	-0.06304779
128	0xbd413be2	-0.04717625
129	0xbd86dd53	-0.06585183
130	0xbda06482	-0.0783167
131	0xbd772b84	-0.060344234
132	0xbd7a108b	-0.061050933
133	0xbd900c74	-0.07033625
134	0xbd667a4f	-0.056268986
135	0x3ce6f69d	0.028193766
136	0x3d763a42	0.060114153
137	0x3d245acc	0.040125653
138	0x3d3c5093	0.04597528
139	0x3c80a2c1	0.015702607
140	0x3cb097cb	0.021556756
141	0x3d71eaad	0.059061695
142	0x3c329591	0.010899917
143	0x3c4ced98	0.012507819
144	0x3d5f2e8e	0.054487757
145	0x3cab3eac	0.020903908
146	0x3d3741bf	0.044740435
147	0x3d2de84e	0.04245787
148	0x3c25d306	0.010121113
149	0x3c98813c	0.018616311
150	0x3d03029b	0.031984907
151	0x3c80f62e	0.015742388
152	0x3d800781	0.06251431
153	0xbd3dc512	-0.04633052
154	0xbda8e5ae	-0.08246933
155	0xbc65ecb8	-0.014033489
156	0xbdbb5254	-0.09146562
157	0xbe09fb37	-0.13474737
158	0xbd9982a6	-0.07495622
159	0xbd88f202	-0.06686784
160	0xbdd86b03	-0.10567286
161	0xbd7e1944	-0.062035814
162	0xbcdbf339	-0.026849376
163	0x3dd879c3	0.10570099
164	0x3c4214e8	0.011845805
165	0xbe3132cb	-0.17304532
166	0x3de35264	0.11099699
167	0xbaf8736f	-0.00189553
168	0x3c89a3f4	0.016801812
169	0x3b8713ed	0.0041222484
170	0xb9546025	-0.00020253712
171	0xbd9505e3	-0.072765134
172	0x3dbbaf74	0.091643244
173	0x3d4fc408	0.05072406
174	0xbe347a49	-0.17624773
175	0x3dbf6357	0.093451194
176	0x3c58209a	0.013191367
177	0x3d04bea5	0.032408375
178	0xbd0ebe37	-0.03484937
179	0xbd1de5cf	-0.03854924
180	0xbbe4e7e9	-0.0069856537
181	0x3dac5699	0.08414955
182	0x3c6ad19d	0.014332202
183	0xbe0bc23f	-0.13648318
184	0x3c31c299	0.010849618
185	0xbc3da84b	-0.011575769
186	0x3cffdff4	0.031234719
187	0xbca0ae5d	-0.019614393
188	0x3cb56ffa	0.022148121
189	0x3d79c174	0.060975507
190	0x3d8338bd	0.06407306
191	0x3dc35808	0.09538275
192	0xbd819a38	-0.06328243
193	0x3cc0e7b2	0.023547981
194	0x3b906742	0.0044068405
195	0x3d4bfd44	0.04980208
196	0xbb7cc56f	-0.0038569828
197	0x3d1ea8be	0.038735144
198	0x3df9a8ef	0.12190425
199	0x3dec8fd6	0.11550872
200	0x3d1fa7d9	0.03897843
201	0x3cdb66c4	0.0267824
202	0x3c1b82b8	0.009491615
203	0xbdc8edb8	-0.09810966
204	0xbdb7871d	-0.08961318
205	0xbd3ff291	-0.04686219
206	0x3df15c6b	0.117852055
207	0x3c267052	0.010158615
208	0xbd500922	-0.05078996
209	0xbd652811	-0.055946413
210	0x3d0e966e	0.03481143
211	0xbdbb251b	-0.09137937
212	0xbdfa4042	-0.122192875
213	0xbd47294b	-0.048623364
214	0x3dc4b5f4	0.09605017
215	0xbc96eb62	-0.018422786
216	0xbd817ba8	-0.06322414
217	0x3b96987e	0.004595815
218	0x3ca11e4c	0.019667767
219	0xbbb8b35d	-0.005636616
220	0xbd5eecf9	-0.054425213
221	0xbcd51f3d	-0.026015872
222	0xbddaae0b	-0.10677727
223	0xbdbdee1c	-0.092739314
224	0xbda6e33b	-0.081488095
225	0xbadc5223	-0.0016809147
226	0x3d2a9b8e	0.041652255
227	0xbbe7caa8	-0.007073719
228	0x3d01a312	0.031649657
229	0x3da3eff2	0.0800475
230	0x3d892034	0.066955954
231	0x3c23b1f2	0.009991156
232	0xbc8b08fe	-0.016972061
233	0x3cf5e1e0	0.030014932
234	0x3d2189c2	0.039438017
235	0x3d2b707c	0.04185532
236	0x3dc4d83c	0.09611556
237	0xbcdcb951	-0.026943834
238	0x3d89a06d	0.06720052
239	0x3d9b0866	0.07569961
240	0x3d5af413	0.053455424
241	0xbba8a16e	-0.005146197
242	0x3bd29b81	0.006427229
243	0x3d7d9a4b	0.061914723
244	0x3de3a9e2	0.11116387
245	0x3d666de7	0.056257155
246	0xbdc5ed26	-0.09664373
247	0xbdabef79	-0.08395285
248	0x3d15b364	0.036548033
249	0x3c97429e	0.018464383
250	0xbdae6521	-0.085153826
251	0x3c804a46	0.015660416
252	0x3d49df13	0.049285006
253	0xbdc03ef6	-0.09387009
254	0xbde74325	-0.11292104
255	0xbca00ca1	-0.019537272

e_conv1.bias f4 [16]
0	0x3deec95f	0.11659502
1	0x3e141fdf	0.14465283
2	0x39c31f04	0.00037216407
3	0x39c75838	0.00038021966
4	0x3e354bd7	0.17704712
5	0x3cfec8ab	0.031101545
6	0x399bd0ba	0.00029719417
7	0xbc11ab45	-0.0088909315
8	0x3b85c661	0.0040824865
9	0xbe07d460	-0.13264608
10	0x3e0d7ae8	0.13816416
11	0x3e40bd95	0.1882232
12	0xb939dd78	-0.00017725478
13	0xb8ca93e8	-9.65966e-05
14	0x3d635654	0.05550225
15	0x3d2bd00a	0.04194645

e_conv2.weight f4 [16, 16, 3, 3]
0	0xbcbbcb4b	-0.022924086
1	0xbc9c4994	-0.019078054
2	0xbcb0320a	-0.021508235
3	0x3c9790a4	0.018501587
4	0x3c8a5ce9	0.016890006
5	0xbc98eed9	-0.018668579
6	0x3b8f7523	0.0043779775
7	0x3d387071	0.045029107
8	0x3d2fc458	0.042911857
9	0x3c07655f	0.008263915
10	0x3cd47d29	0.025938587
11	0x3d153886	0.036430858
12	0x3c597356	0.013272127
13	0xbc58b0a4	-0.013225708
14	0x3c8f8d84	0.017523535
15	0xbbc11d61	-0.005893395
16	0xbc77da8d	-0.01512779
17	0x3ba1f601	0.004942656
18	0x3b19b9db	0.0023456726
19	0x3cfb9d3e	0.030714627
20	0x3cd83357	0.026391668
21	0x3b1e9f60	0.0024203882
22	0x3d2e9c46	0.042629503
23	0x3d29074e	0.041266732
24	0xbbb7b650	-0.00560645
25	0x3d036a6a	0.032083906
26	0x3d084742	0.03327108
27	0xbb65bc19	-0.0035054742
28	0x3c067217	0.008205912
29	0xbc01d451	-0.007924155
30	0x3c9740a7	0.018463446
31	0x3d221c2b	0.039577644
32	0x3cb48429	0.022035675
33	0x3c96c046	0.01840223
34	0x3d229a08	0.039697677
35	0x3cbb61c2	0.022873763
36	0xbca4a9f2	-0.020100567
37	0xbccdc705	-0.025119314
38	0x3b4b6b7b	0.0031039405
39	0xbd1a1146	-0.03761413
40	0xbd417866	-0.04723396
41	0xbc9b4daa	-0.018957932
42	0xbc82b28e	-0.015954282
43	0xbceb3972	-0.028713915
44	0xbbbb9df2	-0.0057256157
45	0xbc062453	-0.008187371
46	0xbc0b1840	-0.008489668
47	0xbc27a8cd	-0.010233116
48	0xbbbac01b	-0.0056991703
49	0xbb8f9b0c	-0.0043824967
50	0xbbf20a51	-0.0073864837
51	0xbbe01ce5	-0.006839382
52	0xbb892e40	-0.0041864216
53	0xbc00a11f	-0.007850914
54	0x3adb1f03	0.0016717616
55	0x3b83f3cc	0.0040268656
56	0xbc80aeb3	-0.015708303
57	0x3cb1e9f1	0.021717997
58	0x3cedb29a	0.029015828
59	0x3bbd29af	0.0057727913
60	0x3cc4a527	0.024004532
61	0x3d09c2c0	0.033632994
62	0x3c576eef	0.013149007
63	0xbc07e370	-0.008293971
64	0xbc3c3a86	-0.011488562
65	0xbca54843	-0.020176059
66	0x3b7c3916	0.0038486174
67	0x3c065382	0.008198621
68	0xbb0b3535	-0.002124143
69	0xbb759376	-0.0037471927
70	0x3bbce304	0.005764367
71	0x3b24c04e	0.0025139037
72	0x3cc4cfd7	0.024024887
73	0x3c97f5cf	0.018549828
74	0x3c230547	0.009949989
75	0x3d0eb34f	0.03483897
76	0x3cf9d3d2	0.030496512
77	0x3c9be52a	0.019030172
78	0x3d19ebdc	0.03757845
79	0x3d12d536	0.035847865
80	0x3cd26ae7	0.02568574
81	0xbc2e32a1	-0.010632188
82	0xbc174fe1	-0.009235353
83	0xbbf11776	-0.007357533
84	0xbc846780	-0.016162634
85	0xbc505f77	-0.012718073
86	0xbc1d7f90	-0.009612933
87	0xbcc4f4ca	-0.024042506
88	0xbcb25bf7	-0.021772368
89	0xbc9b98a4	-0.018993683
90	0x3ce0d779	0.027446495
91	0xba6566a4	-0.00087509514
92	0x3c2ee35e	0.010674326
93	0xbb16b036	-0.0022993213
94	0x3d29f388	0.041492015
95	0x3d31f398	0.0434452
96	0x3cd8da96	0.026471417
97	0xbb0c2ac7	-0.0021387802
98	0x3d702e2f	0.058637794
99	0x3d4f1834	0.05056019
100	0x3d6f8717	0.05847844
101	0x3d346bc0	0.04404807
102	0x3cb62a43	0.022236949
103	0x3c13c2c0	0.0090186
104	0x3d1a619a	0.037690736
105	0x3cbc5c9b	0.022993376
106	0x3cac3e5c	0.021025829
107	0x3cdff4ec	0.027338468
108	0x3c3899a1	0.011267097
109	0x3c5ca040	0.013465941
110	0x3b9616b0	0.0045803413
111	0x3cdedc88	0.027204767
112	0x3d063e11	0.032774035
113	0x3cbf5e9b	0.023360541
114	0x3c96dad1	0.018414887
115	0x3cd2a028	0.025711134
116	0x3ca9de61	0.020735921
117	0x3d088f2d	0.033339668
118	0x3d18fc2b	0.03734986
119	0x3c809210	0.015694648
120	0x3cd7c483	0.026338821
121	0x3d0f5421	0.03499234
122	0x3c8b2504	0.016985424
123	0xbab06f7a	-0.0013460957
124	0x3b839fb6	0.0040168418
125	0xbba278ee	-0.0049582636
126	0x3d8293f8	0.06375879
127	0x3c84353a	0.016138662
128	0x3d297696	0.041372858
129	0x3d0bbbbf	0.034114596
130	0x3d8f2362	0.069891706
131	0x3d8d05e0	0.06885886
132	0xbc1458b8	-0.009054355
133	0x3d40e503	0.047093403
134	0xbcaa6bb1	-0.020803304
135	0x3d1e4f5d	0.038649905
136	0x3c5f590f	0.013632073
137	0xbcf29af9	-0.029614912
138	0x3c9ed787	0.01938988
139	0x3d3a03ee	0.045413904
140	0xbc51536b	-0.012776236
141	0x3c3b8770	0.011445865
142	0x3b4009c4	0.0029302696
143	0x3d30ae2f	0.043134864
144	0xbd0a4433	-0.033756446
145	0x3cec2efd	0.028831
146	0x3d2680b6	0.040650092
147	0xbc415a27	-0.011801279
148	0xbc882484	-0.016618975
149	0x3d1be362	0.038058646
150	0xbc15d95a	-0.009146059
151	0xbd098a4f	-0.033579167
152	0xbb1a424d	-0.0023538054
153	0x3cbe9d15	0.023268262
154	0xbd123927	-0.035699036
155	0x3ce57be3	0.028013175
156	0x3bff2433	0.0077862977
157	0x3cfd3b98	0.030912206
158	0x3d000813	0.0312577
159	0xbaa0c9a4	-0.0012267125
160	0x3c943ed6	0.018096369
161	0x3d259adb	0.040430885
162	0xbc5ace32	-0.013354825
163	0xbd3d47a0	-0.046210885
164	0xbcdf936d	-0.027291978
165	0xbc74a26c	-0.0149313025
166	0xbd64fdf9	-0.05590627
167	0xbd15c430	-0.036564052
168	0xbbc07a09	-0.0058739227
169	0xbd1274c4	-0.035755888
170	0xbd061019	-0.032730196
171	0xbac6571e	-0.0015132164
172	0xbc4818e3	-0.012212965
173	0x3c6b832a	0.014374534
174	0xbca87c6d	-0.020567143
175	0xbd12edf5	-0.035871465
176	0xbc0209c0	-0.007936895
177	0x3af75054	0.0018868544
178	0xbc823ddf	-0.015898643
179	0x3c06587b	0.008199806
180	0x3cc6fcb3	0.024290418
181	0x3d1097f2	0.035301156
182	0x3c15c15e	0.009140341
183	0x3d1abfb2	0.03778047
184	0x3d5b609d	0.053558934
185	0x3cdd562a	0.027018625
186	0x3c8513ce	0.016244795
187	0x3d04dc4c	0.032436654
188	0x3c56fb83	0.0131214885
189	0x3c28410c	0.010269415
190	0x3c10b9c9	0.008833357
191	0x3c5a1d47	0.013312644
192	0x3c1c05ef	0.009522899
193	0x3c08e5ff	0.008355617
194	0x3c46b7b9	0.012128764
195	0x3c99b6be	0.018763896
196	0x3c71af85	0.01475132
197	0x3c881b1a	0.016614486
198	0x3a8a7d04	0.0010565822
199	0xbc3832bc	-0.011242565
200	0x3a594da8	0.0008289465
201	0xbc8df5cf	-0.017329125
202	0xbcf769f7	-0.030201895
203	0xbcaba15f	-0.020950971
204	0xbc5113cd	-0.0127610685
205	0xbcf4643c	-0.029832952
206	0xbc98aeaa	-0.018637974
207	0xbaff1efd	-0.0019464191
208	0xbc5b0dd5	-0.013369997
209	0xbbd6a6dc	-0.006550653
210	0xbcf9f3a3	-0.030511683
211	0xbcd4450b	-0.025911829
212	0xbc6b1daa	-0.014350334
213	0x3b37d54f	0.0028050726
214	0xbc76c695	-0.015061994
215	0xbc7c349f	-0.015393405
216	0xbc11daf0	-0.008902296
217	0xbc0e26cf	-0.008676245
218	0xbb6f3552	-0.0036500287
219	0xbc607036	-0.013698628
220	0xbc583c3d	-0.013197956
221	0xbbf93a98	-0.007605862
222	0xbbd88337	-0.006607439
223	0xbc42cf52	-0.011890249
224	0xbbd9af4d	-0.006643212
225	0xbbe84539	-0.00708833
226	0x3a1a3166	0.0005881995
227	0x3af952f0	0.001902191
228	0xbc11c78c	-0.008897673
229	0xbc12b6ad	-0.008954686
230	0xbbc65b00	-0.0060533285
231	0xbc5114ef	-0.012761339
232	0xbc138a0a	-0.009005079
233	0xbaf2063f	-0.0018464996
234	0xbcf03b52	-0.029325161
235	0x3c755eaf	0.014976188
236	0x39d351ec	0.00040306093
237	0xbc0e4a9d	-0.008684781
238	0x3ced487c	0.028965227
239	0xbc906483	-0.017626053
240	0x3d60fcae	0.054928474
241	0x3c8f6286	0.017503034
242	0x3bcd83b1	0.0062718024
243	0x3ccd53bb	0.02506434
244	0x3c6915d3	0.014226395
245	0xbc95de00	-0.018294334
246	0xbad5b461	-0.0016304367
247	0x3d4a215f	0.04934823
248	0x3cf64605	0.030062685
249	0x3d15f300	0.036608696
250	0x3d592df5	0.053022344
251	0xbb31a0c7	-0.0027103887
252	0xbc7004d0	-0.014649585
253	0xbc748918	-0.014925264
254	0xbb653e5f	-0.0034979803
255	0xbcd38f9b	-0.025825312

e_conv2.bias f4 [16]
0	0x3c13a3f6	0.009011259
1	0x3d83d48a	0.06437023
2	0xbbdce251	-0.006740846
3	0xbd277f1d	-0.04089271
4	0xbc9fa28e	-0.019486692
5	0xbc1b1b46	-0.009466952
6	0xbc62f6ee	-0.013852818
7	0xbac0271a	-0.0014660091
8	0xbd1c9caf	-0.038235363
9	0x3de872d3	0.11350026
10	0xba5a2cf2	-0.00083227374
11	0xbcccfa6e	-0.025021758
12	0xbab8b51a	-0.0014092058
13	0xbc8bcb42	-0.017064694
14	0xbbffc0fe	-0.007804989
15	0x3d6064fd	0.05478381

e_conv3.weight f4 [16, 16, 3, 3]
0	0xbd1e19c2	-0.038598783
1	0xbd207aec	-0.039179727
2	0xbcd2b2a3	-0.025719946
3	0x3d246758	0.04013762
4	0xbd408a8d	-0.047007132
5	0x3bba08d6	0.005677323
6	0x3cfe7116	0.031059783
7	0xbc991a00	-0.018689156
8	0xbca3b5e1	-0.019984188
9	0x3bef5054	0.007303277
10	0x3cb26be2	0.021779958
11	0x3c592b08	0.013254888
12	0x3c4cd8fb	0.012502904
13	0x3d22f372	0.03978295
14	0x3cfd2033	0.030899143
15	0x3a7dc224	0.0009680113
16	0x3cdfcf36	0.027320486
17	0x3ce5cf68	0.028053
18	0x3d3f203c	0.0466616
19	0xbd43132e	-0.047625713
20	0xba929248	-0.0011182511
21	0xbd0faf64	-0.035079375
22	0xbc5391bd	-0.012913165
23	0xbc27c476	-0.010239711
24	0xbd3ee64f	-0.04660636
25	0xbc3c4854	-0.011491854
26	0xbd0a156b	-0.033711832
27	0xbc87a435	-0.016557792
28	0xbc80cf5c	-0.015723877
29	0x3bbd35ec	0.0057742503
30	0x3ca95031	0.020668121
31	0xbc2da904	-0.0105993785
32	0xbc02c306	-0.0079810675
33	0xba15d236	-0.0005715223
34	0x3a31f91f	0.0006789136
35	0x3ce419e9	0.027844386
36	0x3bb46915	0.005505691
37	0x3cb9fd38	0.022703752
38	0xbcdb987a	-0.026806105
39	0x3a3c079d	0.00071727653
40	0x3c242afa	0.010020012
41	0xbd315f86	-0.04330399
42	0xbd54c65a	-0.051946975
43	0xbd0c7b30	-0.03429717
44	0xbd739596	-0.05946883
45	0x3be94486	0.0071187643
46	0xbcd28c05	-0.025701532
47	0xbbfe3a15	-0.0077583888
48	0xbc853418	-0.016260192
49	0xba0dffb0	-0.00054168236
50	0xbbb12498	-0.0054059736
51	0x3cecc246	0.02890123
52	0xbc898ec1	-0.016791703
53	0xbcdaee8c	-0.026725076
54	0xbcf94970	-0.030430526
55	0xbc9e3319	-0.019311475
56	0x3cb01253	0.021493113
57	0x3d087ff7	0.03332516
58	0x3ce167f6	0.027515393
59	0xbd2b81d2	-0.041871853
60	0x3cfda356	0.030961674
61	0x3b27cc1d	0.0025603839
62	0xbccaab55	-0.0247399
63	0xb9f436f8	-0.00046580262
64	0xb9f750f3	-0.00047171823
65	0xb9f4851d	-0.00046638484
66	0xb9f90946	-0.0004749989
67	0xb9fc6166	-0.00048137753
68	0xb9f99532	-0.0004760414
69	0xb9fa07ac	-0.00047689432
70	0xb9fd912a	-0.00048364076
71	0xb9fac5d9	-0.00047831124
72	0x3a9bd8cf	0.0011890176
73	0xba8dc95f	-0.001081746
74	0xbc0868bf	-0.008325755
75	0x3b1b058a	0.0023654425
76	0xbb5636b1	-0.0032686407
77	0xbbab6e7f	-0.005231678
78	0x3c4ad956	0.0123809185
79	0xbc475b9e	-0.012167839
80	0xbc1de904	-0.009638075
81	0x3bf1e646	0.007382187
82	0x3d03f050	0.0322116
83	0x3b741d9d	0.0037249096
84	0x3c5121b4	0.012764383
85	0x3cebb8f9	0.028774725
86	0x3cea0c67	0.028570367
87	0xbac16590	-0.0014755
88	0x3cf97c22	0.030454699
89	0x3c32bfd3	0.010909992
90	0x3d179841	0.037010435
91	0x3c61becf	0.0137784025
92	0x3bd83d50	0.006599106
93	0x3cacde37	0.021102054
94	0xba9448b3	-0.001131317
95	0xbb32e4d5	-0.002729704
96	0x3cc71a6d	0.024304593
97	0xbb23573a	-0.0024923817
98	0xbc20119c	-0.009769823
99	0x3d1c6a63	0.038187396
100	0xbcc2bad9	-0.023770737
101	0x3d6b5c9f	0.057461377
102	0x3cfc8e89	0.030829685
103	0xbd0fb548	-0.035084993
104	0xbb56a17b	-0.0032750058
105	0x3c476803	0.012170794
106	0x3bf56cc9	0.007489775
107	0xbcae0631	-0.021243187
108	0xba7c1213	-0.00096157304
109	0xbbf8f973	-0.007598096
110	0xbc81c5da	-0.015841413
111	0xbc0776b1	-0.008268044
112	0xbbc3bfbe	-0.005973785
113	0xbc380ee1	-0.011234016
114	0xbc337a4c	-0.010954451
115	0xbbfa6528	-0.0076414533
116	0xbc56f28e	-0.013119353
117	0x3c8b0b20	0.016973078
118	0xbb8b7635	-0.0042560347
119	0xbac049c8	-0.0014670426
120	0x3bd0823a	0.0063631805
121	0xbc9b5f41	-0.018966319
122	0xbc72f528	-0.014828958
123	0x3bda18a6	0.0066557704
124	0xbc743b53	-0.014906722
125	0xbc28f6c2	-0.010312738
126	0x3c29d955	0.010366757
127	0xbcb9afa5	-0.022666762
128	0x3d5cd668	0.05391541
129	0x3d4562f3	0.04819007
130	0x3c38f8d4	0.011289794
131	0x3c3cc234	0.011520911
132	0x3d450a26	0.04810538
133	0xbd47d752	-0.04878933
134	0x3ce9212a	0.028458197
135	0x3c51efce	0.012813522
136	0x3b450963	0.003006541
137	0x3ae26a5a	0.0017274127
138	0x3c068c97	0.00821223
139	0x3ba2897f	0.0049602385
140	0x3b4dfb41	0.0031430277
141	0xbbfbad73	-0.007680589
142	0xbafc8d2c	-0.0019268147
143	0x3baf6799	0.005352926
144	0xbd58f698	-0.052969545
145	0x3d9a988b	0.075486265
146	0x3d67a160	0.056550384
147	0x3d7ec464	0.06219901
148	0x3c0c0469	0.008545973
149	0x3d7412f8	0.059588403
150	0xbd02993f	-0.031884428
151	0x3d653e8f	0.055967864
152	0x3d1cbba3	0.03826488
153	0xbb20870f	-0.0024494564
154	0xbca9b659	-0.020716833
155	0x3c6f61a5	0.014610683
156	0xbc904c67	-0.017614556
157	0xbd3d697e	-0.046243183
158	0xbcf2798e	-0.029598977
159	0x3cc6c652	0.024264488
160	0xbc7afb8b	-0.015318762
161	0xbcac791c	-0.021053843
162	0xbc6032c9	-0.013683983
163	0x3bf2ae70	0.0074060485
164	0x3d8ede74	0.06976023
165	0xbd35efdc	-0.0444182
166	0x3d8bbbb0	0.06822908
167	0x3bf6ec13	0.0075354665
168	0x3c8da83c	0.017292134
169	0x3d2f6fbe	0.042831175
170	0x3d421fa1	0.047393445
171	0x3cb5343e	0.022119638
172	0x3d74e373	0.059787225
173	0x3c925e62	0.01786727
174	0x3c5474c9	0.012967297
175	0x3d1a65cc	0.037694737
176	0xbcc321f8	-0.023819908
177	0x3c10f4a1	0.008847387
178	0x3c9f34f7	0.019434435
179	0xbb4c04e6	-0.003113085
180	0x3c8d27f5	0.017230967
181	0x3d8c137d	0.068396546
182	0xbba05af0	-0.004893653
183	0x3d69225b	0.05691753
184	0xbd0ff6c2	-0.035147436
185	0x3d28c6cf	0.041205224
186	0xbd28c81c	-0.041206464
187	0x3cacbe64	0.02108688
188	0x3d80eb3b	0.06294867
189	0x3cb6c7ae	0.022312012
190	0x3bd25431	0.006418728
191	0xbd25b18e	-0.040452532
192	0x3b29a6c6	0.0025886758
193	0x3d7b1589	0.061299834
194	0x3c1871fa	0.009304518
195	0x3d752cd5	0.05985721
196	0x3cea8c9e	0.028631505
197	0xbcb4668c	-0.022021554
198	0x3d3fad76	0.046796285
199	0x3d460fa7	0.04835477
200	0x3cacc006	0.021087658
201	0xbc8b3a0e	-0.016995456
202	0x3cc9981d	0.024608666
203	0x3cc19143	0.023628836
204	0xbccb085c	-0.02478426
205	0x3bad61cb	0.005291199
206	0x3be7cbb7	0.0070738452
207	0x3aa5583a	0.0012614795
208	0x3aa5c0c1	0.0012645946
209	0x3aa454ff	0.0012537538
210	0x3aa6e437	0.0012732808
211	0x3aa756ef	0.0012766997
212	0x3aa5f710	0.0012662131
213	0x3aa76463	0.0012771006
214	0x3aa7e654	0.0012809732
215	0x3aa692bf	0.0012708529
216	0x3b437e8b	0.0029830064
217	0x3d082703	0.03324033
218	0xbc50b8d2	-0.012739377
219	0x3ceca166	0.028885555
220	0x3d2f58a9	0.042809162
221	0xbb385502	-0.002812684
222	0xbc038503	-0.008027318
223	0x3b71500a	0.0036821389
224	0x3c2bfda6	0.010497486
225	0x3c472087	0.012153751
226	0xbba3402f	-0.0049820165
227	0x3d22687d	0.03965043
228	0x3d0ed02e	0.034866504
229	0xbd133e69	-0.03594819
230	0x3ce5909b	0.028023055
231	0xbc6a65e6	-0.014306521
232	0xbc64edc4	-0.013972703
233	0x3ca60cad	0.020269716
234	0x3b16cf93	0.0023011907
235	0x3c99f5b7	0.018793924
236	0x3b33158d	0.0027326078
237	0x3bc3ba20	0.0059731156
238	0x3cd3efaa	0.025871117
239	0xbae3295f	-0.0017331055
240	0x3ba2a590	0.0049635842
241	0x3c796068	0.015220739
242	0x3c2ac0af	0.010421916
243	0x3c367a86	0.01113761
244	0xbd358c83	-0.044323456
245	0x3cb723ca	0.022355933
246	0x3d6459fa	0.05574987
247	0x3dadc0db	0.0848405
248	0xbb8d2f5f	-0.0043086256
249	0xbc13c1ba	-0.009018356
250	0x3cbdc502	0.02316523
251	0x3d2b98cb	0.04189376
252	0x3caf0343	0.02136386
253	0x3ce8dfb5	0.028426984
254	0x3ce5d7aa	0.028056938
255	0x3c80d51a	0.015726615

e_conv3.bias f4 [16]
0	0x3dfc8e6e	0.12331854
1	0xbda13018	-0.07870501
2	0x9c35d1dc	-6.0159113e-22
3	0x3c78ab30	0.015177533
4	0x3d982f13	0.07430854
5	0xba59ee4d	-0.00083134026
6	0xbd17c0fe	-0.037049286
7	0x3db52204	0.088443786
8	0x3db43de2	0.08800866
9	0x3df33fbd	0.118773915
10	0xb474bd53	-2.2793147e-07
11	0x3d8383e8	0.064216435
12	0x3d448240	0.04797578
13	0x3dd2642d	0.10273013
14	0x3d00acd9	0.03141484
15	0x3d83e27c	0.06439683

e_conv4.weight f4 [16, 16, 3, 3]
0	0x3b78cf96	0.0037965528
1	0xbaa07e1f	-0.0012244618
2	0x3b24ac9f	0.0025127304
3	0x3b8e6d92	0.004346558
4	0xbab64e5b	-0.001390885
5	0x3abce194	0.0014410489
6	0x3c2ccfa3	0.010547551
7	0x3be257ed	0.006907454
8	0x3c01c0e9	0.0079195285
9	0xbc2a06c5	-0.010377591
10	0x3a802072	0.0009775294
11	0x3c2aa887	0.010416157
12	0xbc294792	-0.010332005
13	0x3cd108c3	0.025516873
14	0x390e04b0	0.00013543922
15	0xbcc16384	-0.023607023
16	0xbc36c24a	-0.011154721
17	0x3bfb89f6	0.0076763583
18	0x8000e6d5	-8.2807e-41
19	0x8000cd46	-7.3638e-41
20	0x00008ab3	4.9756e-41
21	0x80012578	-1.05277e-40
22	0x80003245	-1.8033e-41
23	0x000047c4	2.5745e-41
24	0x00016375	1.27514e-40
25	0x80014e87	-1.20006e-40
26	0x0000a840	6.0357e-41
27	0x3cd52799	0.026019858
28	0x3d111b6a	0.035426535
29	0x3d27c244	0.04095675
30	0xbb14ac26	-0.0022685616
31	0x3d132731	0.035926048
32	0x3d220efa	0.039565064
33	0x3c2af9df	0.0104355505
34	0x3c54eb13	0.012995499
35	0xbb2cc301	-0.0026361349
36	0xbb60a60a	-0.0034278654
37	0xbc3debf4	-0.0115919
38	0xbc7d8938	-0.01547461
39	0xbb5b7483	-0.0033486194
40	0xbc431142	-0.01190597
41	0xbc837fa5	-0.016052077
42	0xb83af0c2	-4.457008e-05
43	0xbbe6745b	-0.0070329136
44	0xbc3040a8	-0.010757603
45	0x26e3a1e5	1.5795171e-15
46	0x26a1b6c7	1.1221161e-15
47	0x262b3fa9	5.941382e-16
48	0x271dfff3	2.1926877e-15
49	0x26d63e5e	1.4866138e-15
50	0x26592a3d	7.534424e-16
51	0x2717380f	2.098585e-15
52	0x26c79ace	1.3850359e-15
53	0x264447a8	6.809827e-16
54	0x3bf8e32d	0.007595441
55	0x3d0d659c	0.03452073
56	0x3c8ff37d	0.017572159
57	0xbb16e935	-0.0023027186
58	0x3c7851c5	0.015156214
59	0x3d32ac21	0.043621186
60	0xba8f0dcc	-0.0010914146
61	0xb9cacf36	-0.00038682827
62	0xbaf0beff	-0.0018367468
63	0x3c13d9fe	0.009024141
64	0x3bb9551d	0.0056558982
65	0x3bc23170	0.0059263036
66	0x3adf9747	0.0017058634
67	0x3c4f37e6	0.012647605
68	0x3c37cc1e	0.011218099
69	0x3c2e3877	0.010633579
70	0x3bd60a59	0.0065319953
71	0x3c5d0bdc	0.013491597
72	0x3b88caed	0.0041745813
73	0x3b24bbc7	0.0025136338
74	0x3af30c1b	0.0018543036
75	0x3b7cc38b	0.00385687
76	0x3a7541c1	0.00093558064
77	0xbaa43702	-0.0012528601
78	0x3be89959	0.0070983586
79	0x3bad7127	0.00529303
80	0x3b3652c1	0.0027820321
81	0x3c06558a	0.008199105
82	0x3c00fd3d	0.007872877
83	0x3c0e44ee	0.008683426
84	0x3ba31c2c	0.0049777236
85	0x3b4295af	0.002969127
86	0x3aab2dd3	0.0013059921
87	0x3ba2f709	0.0049732965
88	0x3b5cfbdc	0.0033719456
89	0x3b2efcf3	0.0026701062
90	0x0000c7e2	7.1704e-41
91	0x0000653f	3.632e-41
92	0x000087d3	4.8725e-41
93	0x8000913f	-5.2104e-41
94	0x800033be	-1.8562e-41
95	0x80005d1c	-3.3401e-41
96	0x800097c5	-5.4445e-41
97	0x00004945	2.6284e-41
98	0x8000e2bc	-8.1337e-41
99	0x3bd2de0d	0.006435162
100	0x3bb36990	0.0054752305
101	0x3a6464fb	0.0008712557
102	0x3bc0a23a	0.005878714
103	0x3b709e60	0.0036715493
104	0xbb1c6ae6	-0.0023867427
105	0x3ba8293d	0.005131869
106	0x3b768491	0.0037615637
107	0xba95e9e7	-0.0011437506
108	0x3a851266	0.0010152578
109	0x39d1990c	0.00039977615
110	0x3b72b4b6	0.0037033982
111	0xbacf5732	-0.0015818833
112	0xbb9d0339	-0.004791644
113	0xbb1b2ad7	-0.0023676658
114	0xb9cddcff	-0.00039265302
115	0xbb951e1f	-0.00455071
116	0xbb5e0e96	-0.0033883206
117	0xb9e600df	-0.00043869668
118	0xbc7385cd	-0.014863444
119	0xbcabfaa0	-0.02099353
120	0xb9c1b8b8	-0.00036949455
121	0xbc77a237	-0.015114359
122	0xbcb0e8cc	-0.021595381
123	0x3bc82583	0.0061079874
124	0xbba27e43	-0.004958899
125	0xbc298f6e	-0.010349138
126	0xbbbe030d	-0.0057987035
127	0xbc222c90	-0.00989832
128	0xbb74a3fb	-0.0037329185
129	0xbb9878ab	-0.0046530566
130	0xbbef09ed	-0.0072948844
131	0xb90d773b	-0.00013491225
132	0xba48722b	-0.0007646407
133	0xbb10b5ec	-0.002208109
134	0x3b85ba85	0.0040810728
135	0x3b8ceee3	0.0043009385
136	0x3b9ff1c4	0.0048811156
137	0x3b56fe0e	0.0032805237
138	0x3b6a63f9	0.0035765155
139	0x3b36f2b2	0.0027915654
140	0x3a858186	0.0010185696
141	0x3b8482b6	0.0040439023
142	0x3b33fdda	0.002746454
143	0x3a5cba13	0.0008420061
144	0xa77e757c	-3.531327e-15
145	0xa7b0e945	-4.9102724e-15
146	0xa792f80d	-4.0792078e-15
147	0xa7fe1395	-7.0520393e-15
148	0xa8337a18	-9.962971e-15
149	0xa81ae3b5	-8.598093e-15
150	0xa81ca01e	-8.6944595e-15
151	0xa861fb48	-1.2544497e-14
152	0xa84a3e3d	-1.1226748e-14
153	0xb752bc5f	-1.2560834e-05
154	0xb75c51ec	-1.3132096e-05
155	0xb757d883	-1.2865409e-05
156	0xb7608c67	-1.338413e-05
157	0xb76a5653	-1.3967586e-05
158	0xb76552fb	-1.3668784e-05
159	0xb75cf237	-1.3169417e-05
160	0xb7663f21	-1.3723767e-05
161	0xb760d717	-1.340152e-05
162	0x00023657	2.03164e-40
163	0x000231fa	2.01599e-40
164	0x00012cf0	1.07956e-40
165	0x000147b7	1.17562e-40
166	0x00016a91	1.30064e-40
167	0x00012e29	1.08395e-40
168	0x00012ca8	1.07855e-40
169	0x0001a6bf	1.51653e-40
170	0x00014a3b	1.18464e-40
171	0xb7d63efe	-2.5540121e-05
172	0xb7df4241	-2.6614523e-05
173	0xb7db8018	-2.6166483e-05
174	0xb7e122cc	-2.6838294e-05
175	0xb7ea52cf	-2.7933535e-05
176	0xb7e63b2a	-2.7445687e-05
177	0xb7dbf870	-2.6222522e-05
178	0xb7e4c02a	-2.7269201e-05
179	0xb7e06b54	-2.675286e-05
180	0x87ea6e79	-3.5273337e-34
181	0x8936b7ee	-2.1993936e-33
182	0x89834cfa	-3.160949e-33
183	0x09b7c08d	4.423672e-33
184	0x09aad8a8	4.1129754e-33
185	0x0992d35f	3.5346994e-33
186	0x89435001	-2.3509889e-33
187	0x0636b0d4	3.4360308e-35
188	0x09fb0ba2	6.043699e-33
189	0x8001ff5a	-1.83438e-40
190	0x80020630	-1.8589e-40
191	0x800202c0	-1.84658e-40
192	0x8001cf44	-1.66188e-40
193	0x8001d0b4	-1.66704e-40
194	0x80020a90	-1.8746e-40
195	0x0001bfa0	1.60578e-40
196	0x8001e28c	-1.73105e-40
197	0x8001e910	-1.75443e-40
198	0xb80195c2	-3.089547e-05
199	0xb806f6db	-3.217799e-05
200	0xb8051593	-3.1729764e-05
201	0xb8096c48	-3.276419e-05
202	0xb80eec5a	-3.4075558e-05
203	0xb80cd6bc	-3.3578588e-05
204	0xb808776a	-3.253614e-05
205	0xb80dc227	-3.3797838e-05
206	0xb80b78bc	-3.3252625e-05
207	0xaeb5d74b	-8.269171e-11
208	0xaec57ba6	-8.980487e-11
209	0xaea069b6	-7.2947356e-11
210	0xaf0172eb	-1.1773309e-10
211	0xaf0ce1f7	-1.2813205e-10
212	0xaee7a490	-1.0533896e-10
213	0xaf0ce5da	-1.2814586e-10
214	0xaf197519	-1.395687e-10
215	0xaefdafb7	-1.1536321e-10
216	0x0ee3a8bf	5.6122317e-30
217	0x8e605bc7	-2.765432e-30
218	0x917b712c	-1.9835282e-28
219	0x12191322	4.830187e-28
220	0x121bdc1f	4.9180696e-28
221	0x912e4947	-1.374876e-28
222	0x119e9c7f	2.5024453e-28
223	0x11a73ab3	2.638413e-28
224	0x9165a723	-1.8116418e-28
225	0xa884e92b	-1.4756064e-14
226	0xa8758655	-1.3629361e-14
227	0xa7ffe61a	-7.1026194e-15
228	0xa89f2344	-1.766784e-14
229	0xa893e834	-1.642098e-14
230	0xa81bd422	-8.650227e-15
231	0xa8517836	-1.1627897e-14
232	0xa842aca1	-1.0806596e-14
233	0xa7cb5a1b	-5.644151e-15
234	0x00020436	1.85182e-40
235	0x80020710	-1.86205e-40
236	0x0001e95f	1.75553e-40
237	0x8001f323	-1.79057e-40
238	0x0001f2cb	1.78933e-40
239	0x80023422	-2.02373e-40
240	0x80020b46	-1.87715e-40
241	0x80023647	-2.03142e-40
242	0x0001ff9c	1.83531e-40
243	0x0fba29a4	1.8357055e-29
244	0x1029af47	3.3464402e-29
245	0x8e490c46	-2.4781072e-30
246	0x0fd1a398	2.0672005e-29
247	0x102948d2	3.3385472e-29
248	0x8e84467b	-3.2608383e-30
249	0x0ff461dd	2.4097953e-29
250	0x0f0cab59	6.935533e-30
251	0x8edeadc5	-5.489456e-30
252	0x0ae1bb7b	2.1737234e-32
253	0x8ae38173	-2.1907998e-32
254	0x09d9aec6	5.2405206e-33
255	0x0a8b3a60	1.3407171e-32

e_conv4.bias f4 [16]
0	0x3c6251da	0.01381346
1	0xb9fa124e	-0.00047697354
2	0x3d7674cb	0.060169976
3	0x94936f85	-1.4887193e-26
4	0xb759c4c8	-1.2980025e-05
5	0xb60d4432	-2.1050332e-06
6	0x3d41a09a	0.047272302
7	0x3dffbe74	0.12487498
8	0xbd9c3d56	-0.076288864
9	0xbd8b6155	-0.06805674
10	0x3cbaf7d1	0.022823246
11	0x3dce017e	0.10058878
12	0xbc3d8d68	-0.011569358
13	0x3dbbec8f	0.09175979
14	0x3dad9d2c	0.08477244
15	0x3da3db53	0.08000817

e_conv5.weight f4 [16, 32, 3, 3]
0	0x0ac22866	1.8696717e-32
1	0x0be7478f	8.908563e-32
2	0x0bd87259	8.3372225e-32
3	0x0c280403	1.2943456e-31
4	0x0cdf429a	3.4398675e-31
5	0x0cd9ca21	3.3555796e-31
6	0x0babfa71	6.6243626e-32
7	0x0c918cba	2.2425484e-31
8	0x0c837d0a	2.0259e-31
9	0xad4d8fcd	-1.1684831e-11
10	0xad74b80f	-1.3910663e-11
11	0xad85a328	-1.5192805e-11
12	0xad51787c	-1.19070274e-11
13	0xad766e85	-1.4008021e-11
14	0xad845e7e	-1.5048626e-11
15	0xad3d55f9	-1.0762496e-11
16	0xad5c658b	-1.2528099e-11
17	0xad6b0de2	-1.3361286e-11
18	0x80006bea	-3.8712e-41
19	0x8000cd75	-7.3704e-41
20	0x800132bf	-1.1004e-40
21	0x8000745f	-4.1746e-41
22	0x800013a1	-7.042e-42
23	0x800144ad	-1.16472e-40
24	0x80007281	-4.1076e-41
25	0x0000a37c	5.8647e-41
26	0x80012886	-1.06373e-40
27	0xaf6d569a	-2.1585791e-10
28	0xaf8e08fe	-2.583604e-10
29	0xaf9a3923	-2.8053035e-10
30	0xaf733ead	-2.2122988e-10
31	0xaf9008e5	-2.6199767e-10
32	0xaf9a935d	-2.8117145e-10
33	0xaf5b6a6e	-1.9955745e-10
34	0xaf810a45	-2.347226e-10
35	0xaf89e07d	-2.5079663e-10
36	0x000052c3	2.969e-41
37	0x8000e58f	-8.235e-41
38	0x800050fe	-2.9055e-41
39	0x0000719c	4.0755e-41
40	0x00004ecf	2.8271e-41
41	0x0000a7b2	6.0158e-41
42	0x80006e44	-3.9556e-41
43	0x00008a49	4.9607e-41
44	0x00000416	1.466e-42
45	0x8001a80d	-1.52121e-40
46	0x0001b3ab	1.56288e-40
47	0x8001366b	-1.11357e-40
48	0x8001dc83	-1.7094e-40
49	0x000234c8	2.02605e-40
50	0x800153d8	-1.21913e-40
51	0x8001c254	-1.61547e-40
52	0x0001bc40	1.59367e-40
53	0x00019e3f	1.48603e-40
54	0xafdc81a3	-4.010988e-10
55	0xaffff577	-4.6558643e-10
56	0xb00b463e	-5.0667726e-10
57	0xafe34d63	-4.1346046e-10
58	0xb002997c	-4.751184e-10
59	0xb00c2b63	-5.099336e-10
60	0xafcfe7fb	-3.7817913e-10
61	0xafece716	-4.3092346e-10
62	0xaffc8eb5	-4.5939932e-10
63	0x9546e526	-4.0166548e-26
64	0x9624feea	-1.3328251e-25
65	0x963437da	-1.4557908e-25
66	0x96249a40	-1.3296487e-25
67	0x96fc7b6f	-4.0790693e-25
68	0x9705c673	-4.3225096e-25
69	0x95b5db65	-7.345146e-26
70	0x968c217c	-2.2639351e-25
71	0x968e1c58	-2.2959225e-25
72	0x00002047	1.1579e-41
73	0x800090dc	-5.1966e-41
74	0x8000bae9	-6.7051e-41
75	0x80002beb	-1.5755e-41
76	0x00008783	4.8612e-41
77	0x00003f57	2.2722e-41
78	0x8000bf72	-6.8678e-41
79	0x00003d1f	2.1926e-41
80	0x0000088b	3.065e-42
81	0x883f43c6	-5.755664e-34
82	0x08d32e4c	1.2709985e-33
83	0x082a3cc3	5.122894e-34
84	0x076cee07	1.7824617e-34
85	0x0a80bc49	1.2396777e-32
86	0x0a43d3c4	9.428737e-33
87	0x883e5f80	-5.7288305e-34
88	0x099b60d5	3.7405953e-33
89	0x09693d2c	2.8075118e-33
90	0x00018ec0	1.43045e-40
91	0x0001b59c	1.56985e-40
92	0x800193e0	-1.44883e-40
93	0x00021b23	1.93406e-40
94	0x000215db	1.91511e-40
95	0x800201ed	-1.84362e-40
96	0x00020c33	1.88047e-40
97	0x00016807	1.29153e-40
98	0x8002064c	-1.8593e-40
99	0x00003441	1.8745e-41
100	0x8000b059	-6.3262e-41
101	0x80004bea	-2.7233e-41
102	0x8000373e	-1.9817e-41
103	0x00008c6a	5.0371e-41
104	0x80009956	-5.5007e-41
105	0x000061fd	3.5152e-41
106	0x8000a744	-6.0004e-41
107	0x00009d87	5.651e-41
108	0x0000114a	6.202e-42
109	0x80008cf1	-5.056e-41
110	0x8000942e	-5.3157e-41
111	0x80009af2	-5.5584e-41
112	0x80002438	-1.2993e-41
113	0x800008cb	-3.154e-42
114	0x80008f11	-5.1323e-41
115	0x8000052c	-1.855e-42
116	0x8000bbb1	-6.7331e-41
117	0x8000b080	-6.3316e-41
118	0x0000677a	3.712e-41
119	0x000080b6	4.6173e-41
120	0x00001b2d	9.749e-42
121	0x80005b1d	-3.2685e-41
122	0x8000677a	-3.712e-41
123	0x000050df	2.9011e-41
124	0x00003ed7	2.2543e-41
125	0x0000237e	1.2732e-41
126	0x8000e97d	-8.376e-41
127	0x0001000a	9.185e-41
128	0x800094e7	-5.3416e-41
129	0x00000fd7	5.682e-42
130	0x00005eb7	3.3977e-41
131	0x00002233	1.2268e-41
132	0x8000d1b3	-7.5226e-41
133	0x80009e2d	-5.6743e-41
134	0x8000a586	-5.9379e-41
135	0x800051fb	-2.9409e-41
136	0x000036bc	1.9635e-41
137	0x80005f42	-3.4172e-41
138	0x800075d3	-4.2267e-41
139	0x000092ff	5.2732e-41
140	0x000078af	4.3293e-41
141	0x800072e9	-4.1222e-41
142	0x80000e30	-5.09e-42
143	0x800016f5	-8.235e-42
144	0x9a9af206	-6.408392e-23
145	0x9b2182cd	-1.3359872e-22
146	0x9b4fdfc5	-1.7194943e-22
147	0x9aedc6df	-9.8342196e-23
148	0x9b6b8397	-1.9481263e-22
149	0x9b928338	-2.4238472e-22
150	0x9aad9379	-7.178938e-23
151	0x9b281d90	-1.3906186e-22
152	0x9b4e493a	-1.7063581e-22
153	0x00001852	8.724e-42
154	0x80009076	-5.1823e-41
155	0x00001701	8.252e-42
156	0x000020a6	1.1712e-41
157	0x000012cb	6.742e-42
158	0x800000fb	-3.52e-43
159	0x80001353	-6.932e-42
160	0x800011b5	-6.352e-42
161	0x800006d4	-2.45e-42
162	0x8000deac	-7.988e-41
163	0x0000a59e	5.9412e-41
164	0x80007437	-4.169e-41
165	0x80009241	-5.2466e-41
166	0x8000cf3a	-7.4339e-41
167	0x800051de	-2.9368e-41
168	0x00009895	5.4736e-41
169	0x000045df	2.5065e-41
170	0x00005e9f	3.3944e-41
171	0x0000a5c4	5.9466e-41
172	0x80008cc9	-5.0504e-41
173	0x000193b0	1.44816e-40
174	0x0002085e	1.86673e-40
175	0x0001a9af	1.52707e-40
176	0x0001cb73	1.6482e-40
177	0x00000e46	5.12e-42
178	0x80009f88	-5.7229e-41
179	0x80010503	-9.3633e-41
180	0x800148fe	-1.1802e-40
181	0x80001e70	-1.0919e-41
182	0x0001c126	1.61124e-40
183	0x80004a99	-2.676e-41
184	0x00019ca1	1.48023e-40
185	0x800103a2	-9.3139e-41
186	0x80019eb8	-1.48773e-40
187	0x8001b30a	-1.56063e-40
188	0x8001ab72	-1.53338e-40
189	0x8001ee56	-1.77334e-40
190	0x000139e2	1.126e-40
191	0x80011d1e	-1.02281e-40
192	0x8001be68	-1.6014e-40
193	0x800168a6	-1.29376e-40
194	0x80013fad	-1.14678e-40
195	0x00020989	1.87092e-40
196	0x0001e256	1.7303e-40
197	0x00006657	3.6713e-41
198	0x00007216	4.0926e-41
199	0x0000bf71	6.8676e-41
200	0x0000cce2	7.3498e-41
201	0x8000815b	-4.6404e-41
202	0x000012ce	6.746e-42
203	0x800078f5	-4.3391e-41
204	0x800013b7	-7.072e-42
205	0x8000d6d6	-7.7069e-41
206	0x80006235	-3.523e-41
207	0x9e2929ce	-8.9554305e-21
208	0x9ed09b9a	-2.2087212e-20
209	0x9eb8896c	-1.9538594e-20
210	0x9edbd19c	-2.327422e-20
211	0x9f82b6dc	-5.535966e-20
212	0x9f6ba072	-4.9895903e-20
213	0x9ea92eb3	-1.7912885e-20
214	0x9f4ffe6d	-4.404441e-20
215	0x9f3ade18	-3.9570744e-20
216	0xa2e077d0	-6.084218e-18
217	0xa32bcb7d	-9.313019e-18
218	0xa351fe29	-1.1383733e-17
219	0xa2cde8fa	-5.5812035e-18
220	0xa318a3be	-8.27461e-18
221	0xa337725a	-9.944665e-18
222	0xa29b896a	-4.2158327e-18
223	0xa2e3d9c0	-6.1759025e-18
224	0xa30a7e1f	-7.507702e-18
225	0xaa74b528	-2.1734405e-13
226	0xaa9eb0a8	-2.8189018e-13
227	0xaab395ac	-3.1900643e-13
228	0xaa7e39b1	-2.2579748e-13
229	0xaaa1f329	-2.8768071e-13
230	0xaab486b0	-3.206788e-13
231	0xaa5b8a2d	-1.9499047e-13
232	0xaa8a68cf	-2.458645e-13
233	0xaa99ddfa	-2.7332287e-13
234	0x0000f7d4	8.8904e-41
235	0x80000e64	-5.162e-42
236	0x0000e056	8.0477e-41
237	0x0001118b	9.8129e-41
238	0x80004911	-2.6211e-41
239	0x0000c5d7	7.0972e-41
240	0x000087e5	4.875e-41
241	0x000054d3	3.0429e-41
242	0x80010e8f	-9.7058e-41
243	0x80003aaf	-2.1052e-41
244	0x0000b925	6.6417e-41
245	0x00008290	4.6837e-41
246	0x8000b1d7	-6.3797e-41
247	0x0000513b	2.914e-41
248	0x00005028	2.8755e-41
249	0x80007ec5	-4.5476e-41
250	0x0000a635	5.9624e-41
251	0x0000aeb6	6.2674e-41
252	0x80009d46	-5.6419e-41
253	0x800018b8	-8.867e-42
254	0x0000029b	9.35e-43
255	0x0000bd6b	6.795e-41

e_conv5.bias f4 [16]
0	0xb7476f31	-1.1887213e-05
1	0x3dbaf2c7	0.09128337
2	0x3d81141c	0.06302664
3	0x3db728fa	0.089433625
4	0x3c8bbd8f	0.017058162
5	0x3d6708f3	0.05640502
6	0x3d55962e	0.052145176
7	0xb53e2422	-7.0833096e-07
8	0xba550c42	-0.0008127132
9	0x3d01b910	0.03167063
10	0xb08b02a0	-1.0114327e-09
11	0x3d7b5d89	0.0613685
12	0x3c02e392	0.007988827
13	0x3dd7aa02	0.10530473
14	0x3da85562	0.082194105
15	0x3dc9ac10	0.098472714

e_conv6.weight f4 [16, 32, 3, 3]
0	0xb9c3d66a	-0.0003735305
1	0xb9c53c53	-0.00037619713
2	0xb9bfd29d	-0.00036587278
3	0xb9c6ae8c	-0.0003789555
4	0xb9c88b76	-0.0003825088
5	0xb9c34702	-0.00037246203
6	0xb9c5991e	-0.0003768885
7	0xb9c787ad	-0.00038057324
8	0xb9c2bbf6	-0.00037142605
9	0x18b25d1d	4.610594e-24
10	0x1910caf4	7.4856116e-24
11	0x190f62c2	7.412871e-24
12	0x96e5475b	-3.7041977e-25
13	0x18ea54c4	6.0573174e-24
14	0x18f5edff	6.357133e-24
15	0x9928f0e4	-8.734044e-24
16	0x985975a1	-2.810598e-24
17	0x13fc477e	6.368424e-27
18	0xb95ff14a	-0.00021356824
19	0xb9608a85	-0.00021413907
20	0xb9576b82	-0.00020544048
21	0xb965651d	-0.0002187681
22	0xb9665553	-0.00021966295
23	0xb95d1590	-0.00021084235
24	0xb9646cb6	-0.00021784272
25	0xb965560e	-0.000218712
26	0xb95c94e4	-0.00021036301
27	0xb6e6fb69	-6.883802e-06
28	0xb6e96ef1	-6.9568564e-06
29	0xb6d8cdc4	-6.461256e-06
30	0xb6d9a28b	-6.4860265e-06
31	0xb6db5d23	-6.537551e-06
32	0xb6cbfd42	-6.0793545e-06
33	0xb6c3a0fb	-5.8301935e-06
34	0xb6c51096	-5.8729884e-06
35	0xb6b82300	-5.487702e-06
36	0xb89975de	-7.317563e-05
37	0xb8946e4e	-7.077736e-05
38	0xb8889633	-6.512962e-05
39	0xb8a2e348	-7.7670964e-05
40	0xb89e0172	-7.534296e-05
41	0xb89197ca	-6.942412e-05
42	0xb8a5672a	-7.887029e-05
43	0xb8a10d94	-7.6796074e-05
44	0xb894dc79	-7.098256e-05
45	0xae114bd3	-3.303653e-11
46	0xadc07d98	-2.1883648e-11
47	0xad1f7a22	-9.0652225e-12
48	0xadc00dac	-2.1833944e-11
49	0xad77dd44	-1.4089455e-11
50	0xacbbeb0b	-5.3409547e-12
51	0xad4d559e	-1.1671912e-11
52	0xad0294d4	-7.422691e-12
53	0xac3b0724	-2.6578262e-12
54	0xb4aec54b	-3.2553575e-07
55	0xb4a0b69f	-2.9935197e-07
56	0xb4790874	-2.3193007e-07
57	0xb4af7967	-3.2684622e-07
58	0xb4a27719	-3.0261506e-07
59	0xb47ab458	-2.3348673e-07
60	0xb49c0f5e	-2.9068445e-07
61	0xb49113a5	-2.7022648e-07
62	0xb460eb4e	-2.0947229e-07
63	0x03f62142	1.4466216e-36
64	0x03f9d254	1.4683194e-36
65	0x03effcc6	1.4105191e-36
66	0x03d6a563	1.26157605e-36
67	0x03cf4ff0	1.2184719e-36
68	0x03c79c08	1.1731992e-36
69	0x03c8be24	1.1798598e-36
70	0x03b2e60f	1.0514719e-36
71	0x03a7fde7	9.873671e-37
72	0xb3cffdab	-9.6853306e-08
73	0xb3e11809	-1.0481751e-07
74	0xb3cb2816	-9.460216e-08
75	0xb3b55e31	-8.4456026e-08
76	0xb3c66c2b	-9.239769e-08
77	0xb3b3380d	-8.3455326e-08
78	0xb39375e4	-6.866665e-08
79	0xb3a21819	-7.548096e-08
80	0xb39382e3	-6.869029e-08
81	0xb13384e8	-2.6123477e-09
82	0xb13a7c5d	-2.7137255e-09
83	0xb1349d35	-2.628281e-09
84	0xb146c17b	-2.8922773e-09
85	0xb14ba9dc	-2.9636942e-09
86	0xb1493b03	-2.9282894e-09
87	0xb14c99df	-2.9773373e-09
88	0xb1524aa9	-3.0601461e-09
89	0xb14e3fe3	-3.001326e-09
90	0xabe98763	-1.6593223e-12
91	0xac23b090	-2.3261705e-12
92	0xac4e445d	-2.931231e-12
93	0xac20c7ea	-2.2848342e-12
94	0xac63e9a0	-3.2388328e-12
95	0xac8e6e53	-4.048131e-12
96	0xac6a987e	-3.333805e-12
97	0xaca2a61f	-4.62276e-12
98	0xacc1899a	-5.5006668e-12
99	0xb9e6c872	-0.00044018362
100	0xb9e7bae6	-0.00044199004
101	0xb9e12c6d	-0.00042948444
102	0xb9eab37c	-0.00044765684
103	0xb9ec25e3	-0.00045041656
104	0xb9e5a9d8	-0.00043804827
105	0xb9eabd6b	-0.00044773085
106	0xb9ec44bc	-0.0004506464
107	0xb9e63dcf	-0.0004391507
108	0x1989e26d	1.425692e-23
109	0x1985dae2	1.3840284e-23
110	0x19869d53	1.3918818e-23
111	0x19855cdd	1.3789385e-23
112	0x1987015d	1.3959223e-23
113	0x197c8418	1.3054771e-23
114	0x1950092e	1.0755202e-23
115	0x193bcc95	9.7089884e-24
116	0x17bc4ba6	1.2168312e-24
117	0x98b675ff	-4.7165043e-24
118	0x9891dffd	-3.770779e-24
119	0x98836d86	-3.3973297e-24
120	0x97d90a50	-1.40259e-24
121	0x989c82d3	-4.0457154e-24
122	0x98936eee	-3.811062e-24
123	0x189add4e	4.0031528e-24
124	0x18985070	3.93723e-24
125	0x18991364	3.9569153e-24
126	0xb91cc281	-0.00014949778
127	0xb91da2c8	-0.00015033328
128	0xb9183b8d	-0.00014518034
129	0xb926fd65	-0.0001592539
130	0xb92879e8	-0.00016067142
131	0xb922982a	-0.0001550621
132	0xb92c08ff	-0.0001640655
133	0xb92def7f	-0.00016587785
134	0xb927e560	-0.0001601181
135	0x997c6696	-1.3048812e-23
136	0x99c03311	-1.987296e-23
137	0x17c689c4	1.2830227e-24
138	0x99c27424	-2.0106039e-23
139	0x99228913	-8.402886e-24
140	0x1997dd9d	1.5702543e-23
141	0x99095102	-7.099093e-24
142	0x1985f63c	1.3851331e-23
143	0x198ed417	1.4768118e-23
144	0x0002193d	1.92725e-40
145	0x0001da41	1.7013e-40
146	0x0001ca64	1.6444e-40
147	0x00022368	1.96372e-40
148	0x000070e7	4.0502e-41
149	0x0001d799	1.69177e-40
150	0x0000ff3f	9.1565e-41
151	0x0001d1e8	1.67136e-40
152	0x0000a676	5.9715e-41
153	0x19870818	1.3961942e-23
154	0x19158754	7.730449e-24
155	0x186b854e	3.044034e-24
156	0x196b2996	1.21576135e-23
157	0x193044a6	9.11285e-24
158	0x18ea2fc0	6.0535797e-24
159	0x98823cf3	-3.3665755e-24
160	0x19843d81	1.3673321e-23
161	0x1989d23e	1.4250384e-23
162	0xb7654afe	-1.3666924e-05
163	0xb76973ec	-1.3914872e-05
164	0xb75db191	-1.3213969e-05
165	0xb760af01	-1.3392187e-05
166	0xb76514d4	-1.3654313e-05
167	0xb75a72db	-1.3020554e-05
168	0xb7512a8b	-1.2467276e-05
169	0xb755b82b	-1.2738669e-05
170	0xb74cc570	-1.2205317e-05
171	0xb1367f6f	-2.6556923e-09
172	0xb1651d1e	-3.3340437e-09
173	0xb17d10f6	-3.6825987e-09
174	0xb16755a2	-3.36636e-09
175	0xb1910d2c	-4.221553e-09
176	0xb1a128fe	-4.690377e-09
177	0xb199652c	-4.464388e-09
178	0xb1bfa3e7	-5.577465e-09
179	0xb1cf3933	-6.0309957e-09
180	0xb58cc1ac	-1.0487179e-06
181	0xb584d0f7	-9.895583e-07
182	0xb5695753	-8.692634e-07
183	0xb591b1b7	-1.0855064e-06
184	0xb58939d9	-1.0224131e-06
185	0xb57135d4	-8.9857826e-07
186	0xb58da7f0	-1.0554195e-06
187	0xb585b1ce	-9.96102e-07
188	0xb56b66fd	-8.769419e-07
189	0xab8db4ce	-1.0068836e-12
190	0xabcf41b6	-1.4726473e-12
191	0xabf195f3	-1.7165699e-12
192	0xabae477b	-1.2383283e-12
193	0xac01246f	-1.8352227e-12
194	0xac1de047	-2.243554e-12
195	0xabe6c888	-1.6398142e-12
196	0xac2e4ce8	-2.4769579e-12
197	0xac50a640	-2.9650865e-12
198	0xb1c76b17	-5.803837e-09
199	0xb18b7466	-4.0586654e-09
200	0xb13f6d68	-2.7856348e-09
201	0xb1cf6a87	-6.0366037e-09
202	0xb18e3812	-4.1391184e-09
203	0xb143c75f	-2.8489564e-09
204	0xb1d1ad52	-6.102405e-09
205	0xb1914ec7	-4.2290114e-09
206	0xb14890bb	-2.91861e-09
207	0x8001699a	-1.29718e-40
208	0x8001215b	-1.03801e-40
209	0x8001af1d	-1.54654e-40
210	0x00022dd6	2.00114e-40
211	0x0001e9e9	1.75747e-40
212	0x80013fdf	-1.14748e-40
213	0x8001c4b7	-1.62403e-40
214	0x000232a6	2.0184e-40
215	0x0001bc48	1.59378e-40
216	0xb9fc3365	-0.00048103477
217	0xb9f9a2cb	-0.0004761427
218	0xb9f130d5	-0.00046003485
219	0xba01222c	-0.00049260515
220	0xb9ffac8a	-0.00048765942
221	0xb9f7128d	-0.00047125333
222	0xba01ba79	-0.0004948746
223	0xba00783c	-0.0004900729
224	0xb9f8ad22	-0.0004743124
225	0xa5c62767	-3.4374225e-16
226	0xa63e5d03	-6.6045546e-16
227	0xa66516c2	-7.948118e-16
228	0xa5e1b5d2	-3.9154484e-16
229	0xa64eb99c	-7.1722155e-16
230	0xa685c23c	-9.281376e-16
231	0xa5f5e804	-4.2657945e-16
232	0xa66213fa	-7.8436574e-16
233	0xa68ee8c5	-9.916322e-16
234	0x96f7f9f4	-4.0062745e-25
235	0x96fe9bdb	-4.1134272e-25
236	0x96c574b0	-3.1900707e-25
237	0x957c1243	-5.09054e-26
238	0x157ee782	5.147752e-26
239	0x968f9e89	-2.3202946e-25
240	0x16fb484c	4.0596863e-25
241	0x17053483	4.3040897e-25
242	0x169dfdf0	2.5524975e-25
243	0xa9fd7735	-1.1256136e-13
244	0xa9ca5544	-8.985393e-14
245	0xa9903e87	-6.4057314e-14
246	0xaa24988b	-1.461905e-13
247	0xaa01e2a5	-1.1536135e-13
248	0xa9bf3921	-8.492014e-14
249	0xaa586c34	-1.9222194e-13
250	0xaa30bba8	-1.5697047e-13
251	0xaa0039e0	-1.1388763e-13
252	0x18587257	2.7975073e-24
253	0x18158546	1.9325085e-24
254	0x17a2e32a	1.0526349e-24
255	0x18500965	2.6888113e-24

e_conv6.bias f4 [16]
0	0xbae397a4	-0.0017363918
1	0x3d92e0d7	0.07171791
2	0x3db38d0f	0.08767139
3	0x3d68746b	0.05675165
4	0x3d813b02	0.06310083
5	0x3d524e5d	0.051344264
6	0x3e0db77b	0.13839523
7	0x3dc0f162	0.0942104
8	0x3d2f0a63	0.042734515
9	0x3d2d560f	0.0423184
10	0xb12d617e	-2.5230231e-09
11	0x3d5fe82e	0.054664783
12	0xba21503a	-0.0006153617
13	0x3b50629b	0.0031797055
14	0xbc38ba57	-0.011274896
15	0x3d504f32	0.050856777
